Assets/NNModels/OrbitPilotAgent.onnx (onnx, 152095 bytes, 13 tensors)

67 f4 [25]
000000 25 e2 37 42 ac ef 31 42 84 f1 1a 42 1a fc ca 43
       45.970844 44.484055 38.735855 405.96954
000010 73 89 ca 43 2b 1b 4f 3f f6 ad a8 3e 5e 3e 25 3e
       405.07382 0.8090083 0.32945222 0.16137072
000020 eb e5 ad 3c 41 59 b0 3f e6 fd 51 41 a9 8a 50 41
       0.021227797 1.3777238 13.124487 13.033853
000030 0b 44 44 3f b3 19 44 40 52 bc 87 40 7d 4f 3b 3e
       0.76666325 3.0640686 4.2417383 0.18292041
000040 df 61 7c 3f 48 5b 87 3d 2c 1d 7d 3f 36 5b 90 3b
       0.9858684 0.066092074 0.9887264 0.0044054044
000050 9e 78 43 3e 3d a9 2d 3f fa be 14 41 ac 4b c1 40
       0.1908898 0.6783636 9.296625 6.0404873
000060 bb e7 d8 3e
       0.42364296

action_model._discrete_distribution.branches.0.bias f4 [3]
000000 00 e1 1c be 8d 87 4c bf da 64 52 3f
       -0.15320206 -0.79894334 0.8218514

action_model._discrete_distribution.branches.0.weight f4 [3, 128]
000000 0d 3c ae 3d 09 0c 52 bd 42 0d b1 3c d2 f8 57 be
       0.085075475 -0.05128101 0.021612767 -0.21091011
000010 41 09 11 3e d8 e5 1a 3e 46 32 3d 3b 75 ac be 3d
       0.14163686 0.15126741 0.0028869077 0.09310237
000020 93 91 70 3e 04 69 1c 3e 7b d5 41 be 67 e5 22 3e
       0.23493032 0.15274435 -0.18929093 0.15907823
000030 27 08 9d 3e 23 52 6d be 6f 0e 9a 3d e0 8e 34 3e
       0.30670282 -0.23175864 0.07522284 0.17632627
000040 32 4a 7a 3e 0e 3e b4 bd 46 00 65 3e 5a 3e 5c be
       0.24442366 -0.088008985 0.22363386 -0.2150816
000050 60 d9 bc 3d bc 10 44 be d6 83 ce bd ba 99 4d 3e
       0.092211485 -0.19147009 -0.100837395 0.20078173
000060 7a c6 9f 3e d8 0b c1 ba 4e 78 21 3e 61 2e 55 be
       0.31206113 -0.0014728261 0.15768549 -0.20818473
000070 b8 23 ec bc 39 ac 10 be c6 e9 31 3e 0f aa 3d 3e
       -0.028825626 -0.14128198 0.17374334 0.18521903
000080 1e 62 9e bd 5d fa 65 be d8 fb 70 be 08 12 c3 3e
       -0.07733558 -0.22458787 -0.23533571 0.38099694
000090 c4 d3 aa 3e 0f ef 0b be a6 2c a0 be 66 83 27 3d
       0.3336469 -0.13665412 -0.31284064 0.040896796
0000a0 52 58 fe bd 69 eb de 3d cc 20 e8 3d 25 e4 3b 3e
       -0.124191895 0.10884745 0.113343805 0.18348749
0000b0 a0 8f 83 3e 3a 4e db 3d f5 d5 8c be 98 73 be 3d
       0.25695515 0.1070828 -0.27506986 0.092993915
0000c0 12 53 fe 3c 6e b9 1a 3e ce fa 32 3e eb 72 ed 3e
       0.03104547 0.15109798 0.17478487 0.46376738
0000d0 2b 1c eb 3d fc 34 56 3e ce fe 15 3d 36 14 9a be
       0.11479982 0.2091865 0.036619954 -0.30093545
0000e0 31 66 e2 bd c2 66 9e be 0e 69 42 be d6 7a 0b 3d
       -0.11054648 -0.30937773 -0.18985388 0.034052692
0000f0 2b 9b 05 be c3 04 44 be 6d 63 e6 bd 45 3c 05 3c
       -0.13047473 -0.19142441 -0.11249433 0.008132045
000100 0b a5 46 be b3 27 77 bd 1e 5b 11 3e 53 44 94 3d
       -0.19398896 -0.060340595 0.14194915 0.07239594
000110 80 c4 76 3e 38 de 1f 3d 3e dd 56 be 60 1c ad 3d
       0.24098396 0.039030284 -0.20982835 0.08452678
000120 b2 80 c6 3e 21 e8 03 3e 93 94 bf be 58 51 06 be
       0.38770062 0.12881519 -0.3741804 -0.13116968
000130 b4 c9 44 bc f2 ca 93 3c 30 fb 26 3e 9e 39 48 3d
       -0.01201098 0.018041108 0.16306758 0.048883073
000140 a3 e4 12 bd 56 c6 99 3d 61 99 62 be 75 ff 82 bb
       -0.035862576 0.07508533 -0.22128822 -0.003997738
000150 f2 0b b1 3e 8a 29 5d bd 65 44 21 3e d7 cb fe bd
       0.34579426 -0.053994693 0.15748747 -0.12441223
000160 2a 56 02 bd d4 5d 3b be 21 c4 69 3e 9f a1 03 be
       -0.031820454 -0.18297511 0.22828723 -0.12854622
000170 d6 09 fe 3d a9 31 a3 be dd 72 7c 3d 8a 60 53 3d
       0.1240422 -0.31873825 0.06163298 0.05160574
000180 dc df 9d bd d1 8e a2 3e b3 99 d8 bb ab 36 3a 3e
       -0.077087134 0.31749585 -0.0066101192 0.18184917
000190 7b 1a 58 3e 32 9c 58 be a7 f5 7b bd 8d 3c 5d 3e
       0.21103851 -0.21153334 -0.06151357 0.2160513
0001a0 19 77 17 3e 76 0f 7d 3e f9 30 8e 3d 9f 30 5d 3d
       0.14791526 0.24712929 0.069429345 0.054001447
0001b0 3c 2a 63 3e c0 6b f7 bd ea cd d7 bc ff f9 08 3e
       0.2218408 -0.120810986 -0.026343305 0.13376616
0001c0 02 65 05 3c da 62 9a be cc 53 89 3d e8 f8 b7 3c
       0.008141758 -0.30153543 0.06705436 0.022457555
0001d0 1c a8 61 be 6c c4 80 be 17 ce 0a bf 7c e2 77 be
       -0.22036785 -0.25149858 -0.5422072 -0.2420749
0001e0 76 2d e1 be 2f 2c 40 3e d0 44 e1 3d 14 8c 3b 3e
       -0.43979996 0.18766855 0.10999453 0.18315154
0001f0 e7 ed 78 3e b2 b1 98 3d ae da 21 3e 98 3e f2 3d
       0.24309503 0.07455768 0.15806076 0.11828345
000200 d5 6b eb be d5 63 05 3e 44 42 e4 bd 9f 5b 4c be
       -0.45980707 0.13026364 -0.11145452 -0.19956826
000210 0c 8e 43 3e 04 9b ee bd 3b f5 33 3e 6d ba 51 3e
       0.19097155 -0.11650661 0.17574017 0.20481272
000220 51 3d 57 3e bb 94 85 3e ae 2b 02 3f 96 fc 18 3e
       0.21019484 0.26090035 0.508479 0.14940104
000230 dd c6 a9 bd cc 03 0c 3e 3d a7 98 3e 91 f5 ef be
       -0.08289883 0.13673323 0.29815093 -0.4686704
000240 e1 a5 48 bd 77 0b 56 3e 58 e0 70 3d db 91 cd 3d
       -0.04898632 0.20902811 0.0588077 0.10037585
000250 41 b0 9b 3e 17 61 58 3e 82 5f 86 3e 49 17 74 be
       0.3040791 0.21130787 0.26244742 -0.23837008
000260 26 36 5c 3e b0 2d 42 3d 41 98 38 be 68 75 39 3e
       0.21505031 0.047406852 -0.1802683 0.18111193
000270 d5 2b 83 3e f8 cb 85 3e 11 56 ce 3d fe d5 1f 3d
       0.2561938 0.26132178 0.100750096 0.03902244
000280 9d 01 2b 3d b8 b5 98 3d 54 b3 8e 3e 13 e8 29 3e
       0.041749585 0.07456535 0.27871192 0.16592436
000290 14 a4 39 3e 28 4d 34 3e e0 5a 0f 3e 74 5a 93 3d
       0.18128997 0.17607558 0.1399951 0.07194987
0002a0 bf f8 01 3e 87 ec 22 3e 6f 9a 3d 3e bd 03 c2 38
       0.12692545 0.1591054 0.18515943 9.251337e-05
0002b0 57 d9 aa 3d c5 aa 9e 3e f4 77 70 3e 46 63 7f be
       0.083422355 0.30989662 0.23483258 -0.24940214
0002c0 6e a6 b0 3e bb a9 8b bd 21 64 51 3e 6c a2 c3 ba
       0.34501976 -0.06819483 0.20448352 -0.0014925725
0002d0 0a c8 a3 3e 3b 28 5c bc 05 de 39 3e 6a 7b 8d 3e
       0.31988555 -0.013437326 0.181511 0.2763322
0002e0 07 af 57 3e 85 55 82 3d 0c 26 96 3e d9 2d 1b 3d
       0.21062861 0.06363968 0.29325902 0.03788552
0002f0 59 36 4d bd 9c 02 99 3e 34 75 d7 3e 8e 35 83 3d
       -0.050100658 0.29884803 0.42081606 0.06406699
000300 1c 51 3c 3e aa eb 3a 3d 6b 8e 65 bf 32 72 88 3e
       0.18390316 0.045634903 -0.8967044 0.26649624
000310 16 bd 8f bf 7c d2 df 3c e2 e3 25 3e 73 24 ca be
       -1.122958 0.027322046 0.16200212 -0.39480934
000320 2b 58 3e 3e d3 17 c7 be 5f f4 95 bc 23 1d 5a 3e
       0.18588321 -0.38885364 -0.018305002 0.21300177
000330 3b 6d 34 3e 6c 6e 39 be cd ce 36 bd ed c5 93 3e
       0.17619793 -0.18108529 -0.044630814 0.28861943
000340 2e 71 b3 3e 4b 47 e9 3e 9c 09 39 3e 6b 29 93 3e
       0.35047287 0.45562205 0.18070072 0.28742537
000350 9f a4 14 3e 41 6c 92 3e df 63 65 3e 86 6e d1 3d
       0.14515923 0.28598216 0.22401379 0.10226159
000360 1d d5 76 be 91 0c af 3d a0 63 68 3e 2b 91 37 be
       -0.24104734 0.08547319 0.22694254 -0.17926471
000370 3f 38 24 bd ce 42 43 3e a7 97 a4 3d 2f b2 77 3e
       -0.040092703 0.19068453 0.08036738 0.24189065
000380 67 0b ab bd 29 47 0b bd fa 63 3d 3e 52 75 04 3e
       -0.08351784 -0.03400341 0.1849517 0.12935379
000390 73 18 a3 bc 2f 63 8c 3e 95 38 b2 3e 16 c7 13 bf
       -0.01990912 0.2741942 0.34808794 -0.57725656
0003a0 a0 a9 46 3e eb 30 42 bd 4f c8 bc 3e 75 6b 2d be
       0.19400644 -0.047409933 0.36871573 -0.16935523
0003b0 27 12 0d be 81 ae 8d 3e ec 5a 8c 3d 22 d7 3e 3e
       -0.13776456 0.27672198 0.068532795 0.18636754
0003c0 39 5a 0a 3e bf 16 32 3e eb 8f 6d 3e b2 53 02 3e
       0.1351098 0.1739149 0.23199432 0.1272724
0003d0 cb 8f 06 3f 0e 7b 72 3e 20 31 1e 3e 7d be 3f 3e
       0.5256316 0.23679754 0.15448427 0.1872501
0003e0 3c a6 aa 3e b2 02 1c bf d2 cf 14 3e 4d 8e 0e be
       0.33329952 -0.6094161 0.14532402 -0.13921471
0003f0 77 fd 12 3d 69 5f a7 3e e1 d0 27 3d 24 69 f9 bd
       0.035886254 0.3268998 0.040970687 -0.12178257

action_model._discrete_distribution.branches.1.bias f4 [3]
000000 f7 06 ca 3d 5a f0 4d bd 94 07 18 3d
       0.0986461 -0.050278045 0.037116602

action_model._discrete_distribution.branches.1.weight f4 [3, 128]
000000 be 8f bd 3c 1e e8 5b 3e fb 83 49 be e3 c5 d3 3d
       0.02313983 0.21475264 -0.19679253 0.10340478
000010 a6 46 99 3d 52 17 f1 3e 8c 75 af be 06 0e 7e 3d
       0.07484178 0.47088104 -0.3426937 0.062025093
000020 f1 e4 a2 3d 80 bd 16 3e 9e 9f 3d bd a0 1c 5c 3e
       0.07953823 0.14720726 -0.0462948 0.21495295
000030 6f 47 8a be 46 49 9f 3e aa fe 8d 3d e3 de 6b bc
       -0.27007625 0.3111059 0.06933339 -0.014396402
000040 09 d9 38 3d dc 17 63 be 3f 69 b8 3d 56 03 ab 3c
       0.045128856 -0.2217707 0.09004449 0.020875614
000050 e0 08 fc bc 18 12 1c 3f 88 3c 18 bd 72 39 04 bd
       -0.03076595 0.6096511 -0.037167102 -0.032281347
000060 74 89 74 bb 09 86 46 3e 5d 20 94 3e 2b 43 b2 3d
       -0.0037313374 0.19387068 0.2893094 0.087042175
000070 d3 bb b0 3d 57 0b 6b be 09 f1 99 3e 69 63 07 3e
       0.086295746 -0.22953545 0.30066708 0.13221516
000080 69 81 d0 3d 62 fc c9 3e e9 93 a4 3e a1 1f 5b 3e
       0.10180933 0.39450365 0.32144096 0.21398784
000090 ca 68 0b bd 0e fe 88 3e d8 aa 6b bd df ee 55 3c
       -0.03403548 0.26756328 -0.057535976 0.01305744
0000a0 87 6c 54 3d a7 b1 b2 3d 5b e9 f1 bd be 04 8f bd
       0.051861312 0.08725291 -0.11812087 -0.069833264
0000b0 66 a3 bb bd 81 d5 6d 3d 86 0b 88 3d 68 34 15 3e
       -0.09162025 0.05806494 0.06642823 0.14570773
0000c0 03 f6 8d 3e f0 02 cd 3d 3f 51 2e be 85 0c 09 3e
       0.27726755 0.10010326 -0.1702318 0.13383682
0000d0 9c fa 32 bd ac c8 a8 3d b5 b1 05 3e 52 b4 0a 3e
       -0.04369603 0.082414 0.13056071 0.13545349
0000e0 43 b5 dd 3e 6e 3f ea bc 2c 8a 1e 3e f5 6d 94 bd
       0.43302354 -0.028594699 0.15482396 -0.07247535
0000f0 84 f0 6c 3d 15 54 64 be 64 69 3b 3d dc 7e 42 3e
       0.05784656 -0.222977 0.045754805 0.18993706
000100 3b 4e 20 3e cd 0d 6c bd a0 67 81 bc 41 a6 06 be
       0.15654843 -0.05763035 -0.015796483 -0.13149358
000110 47 48 a0 bc 40 59 e8 be 9a 2e 6d 3b 11 2c 28 be
       -0.019565715 -0.45380592 0.0036191107 -0.1642306
000120 8c 49 46 3e 45 94 07 bf 4b 0b b2 be 02 77 c4 bd
       0.19363993 -0.52960616 -0.3477424 -0.095930114
000130 01 1a f9 bd c2 31 dc ba 5a ab 36 3d 1e 39 04 3e
       -0.12163163 -0.0016799497 0.044597007 0.12912413
000140 62 33 f0 bc cf 71 32 3d 11 89 9f be 15 b1 d5 bd
       -0.029321376 0.043565568 -0.3115926 -0.10434166
000150 ad 60 f3 bd 48 db 7a 3e ce 17 8b be 27 a3 87 3e
       -0.11883674 0.24497712 -0.271666 0.26491663
000160 c6 ba a9 3e 11 14 c2 bb 3c 61 ba bd 2e c1 74 3e
       0.3315031 -0.0059228023 -0.09100577 0.23901817
000170 63 12 91 bd 97 7d 5c 3c 31 cc d1 bd 36 5c 4d 3e
       -0.07083585 0.013457677 -0.102440245 0.20054707
000180 6f b4 95 3e 6d 99 0e 3d fe e8 95 bc a6 7e 98 3d
       0.29239222 0.034814287 -0.018299576 0.07446031
000190 72 66 71 3e 88 b7 93 3d e6 5f 26 bd a8 6a c3 3c
       0.23574236 0.0721274 -0.0406188 0.023854569
0001a0 81 cc 19 bd 2a d9 ec 3d 3e 7b d3 3d f9 39 ab 3c
       -0.037548546 0.11564858 0.10326241 0.020901667
0001b0 39 ff 15 3d a0 58 0d bf 00 cc 37 3e a9 fb 8a 3d
       0.036620352 -0.55213356 0.17948914 0.067862816
0001c0 90 4a 15 bd b9 12 c5 bc 5d b2 8a bd 33 20 40 bc
       -0.03644806 -0.02405678 -0.06772301 -0.011726427
0001d0 a2 c9 c7 bd 55 cd 14 3e 58 aa d5 3a ef 9a c5 3e
       -0.09755255 0.14531453 0.0016301377 0.38594767
0001e0 2c 88 1c be d2 c2 b3 3c fa 73 ca 3b 92 d7 e9 bd
       -0.1528632 0.021943484 0.0061783763 -0.1141807
0001f0 5c 2a f5 3d a9 99 2f 3e 31 51 1a 3e 58 ce 2f bf
       0.1197097 0.1714846 0.15070035 -0.6867423
000200 7a 1c 8e 3c 1f 82 83 3d cc 26 89 3e 64 7f 95 3e
       0.017347563 0.06421303 0.26787412 0.29198754
000210 dc 87 8b 3e 49 24 96 be 8a 0e d2 3e 82 8a 8f 3b
       0.2725209 -0.29324558 0.41026717 0.004380525
000220 a5 81 17 3d 0d 7c 07 3e d8 df e8 bd dd 8f 04 3f
       0.036988873 0.13230915 -0.1137082 0.5178202
000230 ca 04 3d 3e 8b e4 d5 be a6 8d ce 3d 66 9b 8f bd
       0.18458858 -0.41775927 0.10085611 -0.07012062
000240 4a 50 d3 3d 9a 79 b9 bd ae 68 1d 3e 86 2f d2 bd
       0.10318048 -0.09056397 0.15371963 -0.102629706
000250 cd 48 e0 3d de 23 b0 be b3 fb 8c bd eb d7 45 3e
       0.10951386 -0.34402364 -0.06883945 0.19320647
000260 1c 40 b3 3d 8b 99 cf 3d 02 60 b6 3d 49 4f c5 bd
       0.08752462 0.10136708 0.08905031 -0.09634263
000270 da 01 a1 bc 65 d2 6a 3e f2 38 8b bd ec 83 ad 3d
       -0.019654203 0.22931822 -0.06797971 0.08472428
000280 e1 64 08 3e 9b ec 33 3d 97 f1 3b bd 74 0a 33 3e
       0.13319732 0.043926816 -0.045884695 0.17484456
000290 9e 31 ca 3e 0f 7f 23 be a2 51 d2 3d 2c b8 44 3e
       0.3949098 -0.15966438 0.102694765 0.19210881
0002a0 4b c9 19 3e 1a 41 7a 3e de d0 a1 3e 23 f2 d8 3d
       0.15018193 0.24438897 0.31604666 0.10593059
0002b0 b3 74 5e 3e 32 a7 e7 3b fc 2b 62 3e 25 bb 12 be
       0.21724205 0.007069492 0.22087091 -0.14329202
0002c0 8e 84 90 bc d5 f1 b7 3d db 08 0d 3e 8a 3e aa be
       -0.017641332 0.08981673 0.1377291 -0.3325084
0002d0 ce 4b 3c 3e b7 ab 0a 3c 8b 94 7b 3d 8f 48 b0 bd
       0.18388292 0.008463792 0.06142096 -0.086075895
0002e0 d7 53 81 bd 7c 83 6c 3d be 0b 68 3d 51 83 6b be
       -0.06314819 0.05774258 0.056651823 -0.22999312
0002f0 6d 37 98 3d 49 3e ab 3d 2f 86 06 ba 0d 45 55 3e
       0.07432447 0.08361489 -0.0005131689 0.20827122
000300 16 a4 66 3e ff b0 9e bd 92 95 ce 3d 2d 9e 09 3d
       0.22523531 -0.07748603 0.10087122 0.033598114
000310 0d 50 3b bd 47 b6 97 3d ef e8 95 bc 49 03 db 3e
       -0.04573064 0.074078135 -0.018299548 0.42775944
000320 bf 47 e0 3b e2 1a f8 bb 0b 4b 6c bc 35 e6 12 be
       0.0068444903 -0.007571564 -0.0144221885 -0.1434563
000330 91 c3 2c 3e f5 ee 0d 3e 7d cb 3a 3e 23 93 b0 3d
       0.16871478 0.13860686 0.18241687 0.08621814
000340 48 d7 7d 3e f0 d0 34 3e 23 80 20 3e 59 1f 1b bd
       0.24789155 0.17657828 0.1567388 -0.037871692
000350 48 36 31 3e 8a 60 a9 bd 25 0f 25 3d af 6d 80 bd
       0.17305863 -0.082703665 0.040297646 -0.062709205
000360 64 eb 0f bd 79 e2 28 bc b2 36 ce 3d 81 cb 50 3e
       -0.035136595 -0.010307902 0.10069026 0.2039013
000370 92 5f 6f 3e 6b c3 e1 bc b4 b7 94 3d f9 a1 fc 3d
       0.23376301 -0.027559003 0.07261601 0.12335581
000380 e4 81 c0 3c 07 46 d5 bd 5e db 3d 3e 9c cb 3a 3e
       0.023499437 -0.10413747 0.18540713 0.18241733
000390 84 19 6c be e0 92 a2 bc 56 3a 8d 3e ca 41 ac 3d
       -0.23056608 -0.019845426 0.2758357 0.08410986
0003a0 d2 c4 0c 3d 3b c6 6e bc 60 7d d1 3d d6 63 f9 bd
       0.03436739 -0.014573629 0.102289915 -0.12177245
0003b0 da 0e b9 3d 90 99 e3 bc cd 88 53 3d 89 97 18 3d
       0.09036036 -0.027783185 0.051644135 0.03725389
0003c0 77 22 14 3e 96 74 66 3e 50 16 3a 3e f7 1a d9 3e
       0.14466272 0.22505412 0.18172574 0.42403385
0003d0 c4 38 5e 3e d8 52 a3 be 82 c4 4b bd ed 71 7a be
       0.21701342 -0.31899142 -0.04974795 -0.24457522
0003e0 ad 5c 3d 3e 43 ca 1b bd 6b 06 5b bd 06 51 19 3d
       0.18492384 -0.03803469 -0.053472918 0.037430786
0003f0 8a 12 7a 3c 42 36 21 3d 5b 3e ed 3d 8d df 3c 3f
       0.015263209 0.039358385 0.11584159 0.7377861

discrete_action_output_shape f4 [1, 2]
000000 00 00 40 40 00 00 40 40
       3.0 3.0

network_body._body_endoder.seq_layers.0.bias f4 [128]
000000 78 6d de bd 1c 62 dc 3d bc f3 6f be 17 0e 5b be
       -0.10860723 0.107609004 -0.23432821 -0.21392094
000010 b0 fa 4a 3e 4d 2b 75 3e 83 74 c2 be 02 f0 00 be
       0.19822192 0.23942299 -0.37979516 -0.12591556
000020 ed 34 cf 3e ae 6c 0a 3e 1b 1f 51 3d 42 70 a2 bd
       0.40470067 0.1351802 0.051055055 -0.07931568
000030 49 6a 3f be 37 a7 b2 bc f8 45 de 3e 38 18 02 3e
       -0.18692888 -0.02180825 0.43412757 0.12704551
000040 94 f9 63 3e dd ba 62 bd ed 9d a3 be 6b ac 7b bd
       0.22263175 -0.055353988 -0.31956425 -0.061443727
000050 67 c5 20 be 5c dc e6 3e 9d 1b 7c 3d 16 f4 03 be
       -0.15700303 0.45089996 0.06154977 -0.1288608
000060 04 a6 8b be 09 22 30 3e 24 f3 9d 3d 88 08 bf bc
       -0.27275097 0.17200483 0.07712391 -0.023319498
000070 46 2a da 3e 9e 25 34 be f9 d4 24 bc 55 35 32 be
       0.42610377 -0.17592475 -0.010060542 -0.17403157
000080 7a f3 16 be aa ef 85 be 7f ea 13 be f8 7d 4a be
       -0.14741316 -0.26159412 -0.14444922 -0.19774616
000090 a5 4d 5c be 1c d4 90 be 06 7c 2e 3d a9 3d e8 bd
       -0.21513994 -0.28286827 0.042598747 -0.11339886
0000a0 29 fc ad bd 0e 8f 9e bd 3a 72 49 be 8d 25 b5 3e
       -0.08495361 -0.07742129 -0.1967248 0.3538021
0000b0 55 d0 a3 be cf 6d 11 3e 14 e2 39 be 8c 4e 1b be
       -0.31994882 0.14202045 -0.18152648 -0.15166682
0000c0 11 6a ef bc 92 fb 85 3e 43 aa 84 3d 13 b2 6f be
       -0.029225381 0.26168495 0.06477787 -0.23407774
0000d0 38 6c 37 be 6d b4 82 be 79 a2 98 be 92 40 80 3e
       -0.17912376 -0.2552828 -0.29811457 0.25049263
0000e0 24 42 1c 3b 9c af 11 be cf 1a 33 be 96 47 60 3e
       0.0023843134 -0.14227146 -0.17490695 0.21902308
0000f0 ce eb a0 be 6b 5b 22 be 4a ee 34 be 0c b1 8a be
       -0.31429905 -0.15855186 -0.17669025 -0.270882
000100 5f 7b ca be 19 70 41 3e a1 b4 6d be e1 6a 9e 3c
       -0.3954725 0.18890418 -0.23213436 0.019338073
000110 5f c9 9f be 14 bc 59 be 76 e8 17 3d 73 4c 2f 3d
       -0.3120832 -0.21263152 0.037086926 0.042797517
000120 67 3e 66 bd 2e e9 64 3e 42 2d 4c 3e 93 0b 42 3b
       -0.056211855 0.22354576 0.1993914 0.002960895
000130 78 f1 f3 ba 47 ff 2c be 54 9a 96 3d 44 ac a7 3e
       -0.0018611392 -0.16894256 0.073536545 0.32748616
000140 a3 3a 4f be 7d 19 04 3f c1 2e b0 bd 72 b8 3c bc
       -0.20237212 0.5160139 -0.086026676 -0.011518585
000150 8f 82 40 be af 18 e7 bd 5c d6 f9 bd aa 24 e3 3d
       -0.18799804 -0.11284005 -0.12199089 0.110909775
000160 dc ec 9a bc d3 32 17 be 07 7c 59 3e b9 d6 ec bd
       -0.018911771 -0.14765482 0.21238719 -0.115643926
000170 51 bd 7b bd e1 c7 e7 bd b1 0e 87 3d 09 19 a0 3d
       -0.061459843 -0.11317421 0.06594599 0.07817275
000180 7b c5 23 be 2f f7 f1 bd e3 66 1a be 48 66 62 3e
       -0.15993302 -0.11814725 -0.1507831 0.2210933
000190 07 fb a6 be 79 54 db be b9 3e 6b be 17 c2 91 be
       -0.32613394 -0.42837885 -0.22973146 -0.2846839
0001a0 cf 05 1d 3d 14 3c 17 be 58 8c 6b be 0c 99 a8 bc
       0.038335618 -0.14769012 -0.23002756 -0.020580791
0001b0 94 fe db 3d 7f 0e 4a be 6b 6c 77 bd f7 4d 4b 3e
       0.10741916 -0.19732092 -0.06040613 0.1985396
0001c0 72 da 33 3c 21 f6 a5 bd df 56 ca bc 91 13 72 be
       0.010977374 -0.08103586 -0.024699626 -0.23640276
0001d0 f8 b4 05 be 37 05 8f bd 4b a5 8d 3e 4c f4 70 be
       -0.13057315 -0.069834165 0.2766517 -0.23530692
0001e0 3a 94 7e bc 39 95 10 3e ca 86 e1 bd 3c b7 16 3e
       -0.01553827 0.14119424 -0.11012037 0.14718336
0001f0 c9 c2 d5 bd 61 af 99 be 04 bf 98 be 7c a5 d4 be
       -0.10437543 -0.30016616 -0.29833233 -0.41532505

network_body._body_endoder.seq_layers.0.weight f4 [128, 25]
000000 d7 5f 55 bf b0 1f 87 3e 9c 3f 8d 3e 81 fc d7 bc
       -0.83349365 0.26391363 0.27587593 -0.02636552
000010 70 78 8c be a6 09 3f 3d 8f c6 63 3e 47 ac e5 be
       -0.27435637 0.04664006 0.22243713 -0.44858
000020 dc 39 93 be 29 ef bf be 68 94 3f be a2 91 54 be
       -0.2875508 -0.37487152 -0.18708956 -0.2075868
000030 3d ea 95 be 9b fd a1 3e c8 18 08 3f dc 07 bc bd
       -0.29280272 0.31638798 0.53162813 -0.091811866
000040 6d e9 8e 3d e7 fb 9d 3e f9 04 c8 3c a5 d6 c2 ba
       0.06978116 0.3085625 0.024416434 -0.0014864994
000050 e9 06 6a bd 6a 6f 96 be f0 bd d0 bd 24 37 6d be
       -0.057135496 -0.29381877 -0.10192478 -0.23165566
000060 39 e6 75 be 57 16 97 3e 90 c5 b5 be 79 01 b8 3d
       -0.24013604 0.2950923 -0.3550229 0.08984656
000070 e3 e0 a4 be fc 40 af bd a9 46 6c 3e 7c fb 43 3d
       -0.32202825 -0.08557317 0.2307383 0.047847256
000080 d8 8a 01 be bc 6c 51 3d 3d 84 0f bf c2 10 4d 3e
       -0.12650621 0.051129088 -0.56061155 0.20025924
000090 05 93 d3 3d 4f 01 85 be 80 61 af bf e7 77 58 bf
       0.10330776 -0.2597756 -1.370163 -0.84557956
0000a0 c6 b2 ad 3e 6b b1 bf 3d 4b 0b 82 3e 0d f0 1f 3e
       0.33925456 0.09360012 0.2539924 0.15618916
0000b0 7f 31 1c be c2 12 9d be 11 c6 18 3c ec c5 70 3f
       -0.15253256 -0.30678374 0.009324566 0.94052005
0000c0 cc b9 40 3e d8 12 77 3e 5e b8 99 3e 0b cf 2c bf
       0.18820876 0.24128282 0.30023474 -0.6750342
0000d0 ea 34 b4 be 63 d1 b8 bd 59 d4 18 3d 44 df b7 3d
       -0.3519662 -0.09024312 0.037311886 0.089781314
0000e0 c2 a7 d8 bd 24 07 5f bd 53 05 10 bf 26 49 36 bf
       -0.10578872 -0.05445017 -0.56258124 -0.71205366
0000f0 84 3d df 3d d7 af 06 be 88 37 4e 3e 68 59 3c bf
       0.10900405 -0.13153015 0.20138371 -0.73573923
000100 e6 66 0e be 83 72 03 bf 7b de 56 bd d2 c5 3c be
       -0.1390644 -0.51346606 -0.052458268 -0.18434837
000110 01 a5 bd 3d aa ab da bd 41 57 bf 3b f2 3c 39 bb
       0.092599876 -0.106772736 0.005839259 -0.0028265086
000120 00 a0 a8 3e 00 b8 82 be 4d f6 a1 bd 6f 35 a9 3f
       0.3293457 -0.25531006 -0.07908306 1.3219432
000130 9a b5 8a 3d b3 d2 a9 bd e6 c9 d4 bd 56 3d 90 bc
       0.06772919 -0.08292141 -0.103900716 -0.017607372
000140 bf 0c 45 3e 7a 62 b5 bd 79 a3 5e be b9 17 b7 bd
       0.19243143 -0.088566735 -0.21742047 -0.089400716
000150 4e 1d 9f be 5f 74 e9 3d 78 a0 23 bd a9 9e ae bd
       -0.31077045 0.11399149 -0.039947957 -0.08526356
000160 0e dd 0c bf cf 4f 56 3f 1f cc 74 be 67 38 27 3d
       -0.550248 0.8371553 -0.23905991 0.040825274
000170 84 00 58 be 1a ed 51 3e 71 95 86 3d 6a 9d 82 bd
       -0.21093947 0.20500603 0.065714724 -0.063776806
000180 34 e8 d5 3d 99 41 2d 3e d2 32 ab 3d a1 47 1b be
       0.1044468 0.16919555 0.083593026 -0.15164043
000190 2b fb 66 bf dd b0 35 bd 9c d0 f3 bc 7f a9 d6 3e
       -0.90227 -0.044358123 -0.029762559 0.4192619
0001a0 ed 32 0c bd 9e 46 39 3c f3 84 4d 3b eb 02 90 3d
       -0.034228254 0.01130834 0.0031359761 0.070318066
0001b0 6d dc 1a 3e 06 e5 81 3e 83 50 82 be dd bd c2 be
       0.15123148 0.25370044 -0.2545205 -0.3803548
0001c0 84 3a 9d bd 36 b6 40 3f 8b 44 62 3f 36 04 29 3f
       -0.076771766 0.7527803 0.8838584 0.6602205
0001d0 cc 5f 8a bd 17 f4 82 bd ba 0f 88 bc 59 b1 da bd
       -0.06756553 -0.06394213 -0.016609062 -0.10678358
0001e0 cb 45 85 be 7d 71 fa 3d b5 ce e1 be 7b 8d 28 bf
       -0.2602981 0.122286774 -0.44103017 -0.6584088
0001f0 c9 b2 38 3e 0b 22 60 bf 2b f9 ea bd 82 f7 7d bd
       0.18036951 -0.87551945 -0.11473306 -0.06200362
000200 65 7c 57 3e 1f d0 48 3d 9a ac bf bd 63 ee 6d 3e
       0.21043546 0.049026605 -0.09359093 0.23235469
000210 15 ec 9a bd 8f 34 a8 be 26 9a 2f 3d 15 88 2c be
       -0.0756456 -0.328526 0.042871617 -0.16848786
000220 f7 c1 9f be a8 aa 4c 3e f1 a6 11 be ee 0f ff bd
       -0.3120267 0.19986975 -0.1422384 -0.1245421
000230 62 a6 86 3e 5d 56 9e 3d 94 3a d9 3e 1d 27 f9 3c
       0.26298815 0.07731316 0.42427504 0.030414158
000240 99 ef 06 3e a5 dd 82 bd 4f 87 31 be 50 a0 8b bc
       0.13177337 -0.063899316 -0.17336772 -0.017044216
000250 93 17 02 bf 06 ec 09 3e a8 74 ae bd 68 f0 46 3e
       -0.5081722 0.13468942 -0.08518344 0.19427645
000260 3d 02 73 be 6e d2 35 3e 6d 2a 0d be be fa 9a 3d
       -0.23731323 0.17756054 -0.13785715 0.075673565
000270 4f 71 6c be 69 42 27 bc 91 ee cf 3e 46 78 6b 3e
       -0.23090099 -0.0102087045 0.406117 0.229951
000280 f3 6e 05 3e ae 57 9a 3e 11 fd 87 3d 82 75 e6 3e
       0.13030605 0.3014502 0.066400655 0.45011526
000290 35 e9 50 be 08 2c 40 be 4f 92 08 3f 70 8e 3b bd
       -0.20401461 -0.18766797 0.5334825 -0.045790136
0002a0 a5 99 93 be 5d a0 a2 be d1 d0 33 be d9 4b c2 be
       -0.2882816 -0.31762972 -0.17560126 -0.37948492
0002b0 b2 cb 19 bf d1 f0 38 be 58 49 45 3e 91 a4 bf be
       -0.6007644 -0.18060614 0.1926626 -0.37430242
0002c0 f9 eb a2 3e 43 be d7 bd 65 ff a1 bd 2b 36 38 be
       0.31820658 -0.105343364 -0.07910041 -0.17989413
0002d0 c1 dd 7c bd 92 16 7d be 83 6c 53 3f 9f 6b eb bd
       -0.06173492 -0.24715641 0.8258745 -0.114951365
0002e0 28 e2 1a bd 8a c7 26 bd c7 a9 c6 3e 07 0d e7 3e
       -0.037813336 -0.04071764 0.38801405 0.45127127
0002f0 7e 4e 19 3f 43 ad 27 3e 29 f2 8d 3e 1f 6c 0e 3e
       0.59885395 0.16374688 0.27723816 0.13908432
000300 20 b9 44 be 7c 8c 24 3d 2d 49 f6 bd 83 a7 f6 be
       -0.19211245 0.04017304 -0.12025676 -0.48174676
000310 55 fe 4e 3c f1 43 ad 3d 36 50 d6 bd 6c 8a af 3d
       0.01263388 0.084602244 -0.10464518 0.08571324
000320 53 59 93 bf 2a 63 16 bf 9b 12 e5 3c bd ae dd 3d
       -1.1511635 -0.5874506 0.027962973 0.10824344
000330 3f a5 32 be d8 32 94 3e c6 43 d7 be 4d f9 2b be
       -0.17445849 0.2894504 -0.42043895 -0.1679432
000340 bc e1 56 3e 10 3a 52 bc 31 26 b4 3d a3 9a 84 3e
       0.20984548 -0.012831226 0.08796347 0.25899228
000350 a3 76 7b 3d 68 fb 66 3e 36 04 dd 3e 06 24 53 3f
       0.061392438 0.22556841 0.43167275 0.8247684
000360 5b 4a 51 3e cb bd d8 3c 24 47 99 3e 4a 77 10 be
       0.2043852 0.026457688 0.29937088 -0.14108005
000370 95 e4 ec bc 99 27 27 3d f4 d8 a6 bd 0a bf 8c be
       -0.02891759 0.040809248 -0.08146849 -0.274895
000380 3a b6 90 3d 47 e3 46 bf ee c0 6f be b0 09 e4 bc
       0.07066007 -0.7769055 -0.2341344 -0.02783665
000390 91 4a 04 be 2c c5 d0 3d fc 21 b5 3d 81 d9 86 3e
       -0.1291907 0.101938576 0.08844373 0.26337817
0003a0 8d 94 b2 bd e1 04 4c bd f3 99 cd be 5d d7 40 3d
       -0.0871974 -0.04980934 -0.40156516 0.047080386
0003b0 6c a8 27 be 43 44 8f 3d b1 99 c9 3e 0c b5 b6 be
       -0.16372842 0.06995442 0.3937507 -0.35685003
0003c0 b9 53 86 3d a5 70 db bd 50 f2 b5 3e bd 23 32 3e
       0.065589376 -0.107148446 0.35536432 0.17396446
0003d0 db 4f be 3e f8 6e b3 3c ca fc 92 3e 2a d0 01 be
       0.371703 0.0219035 0.28708488 -0.12677065
0003e0 da 66 c3 3d 14 2a 2c be 6f bb 29 be 2f e1 fb 3e
       0.09541102 -0.16812927 -0.16575406 0.4919524
0003f0 d6 f9 76 be 64 bc 08 be d8 d1 07 3d af b2 9b 3c
       -0.24118742 -0.13353115 0.033159107 0.019006101

network_body._body_endoder.seq_layers.2.bias f4 [128]
000000 0d 74 62 bd 75 2f a4 be af 92 3a 3e e9 82 6c bd
       -0.055286456 -0.32067457 0.18220018 -0.057742033
000010 d4 f4 ad be 50 7d 29 3b da 46 b9 3d 28 1d a0 be
       -0.33975852 0.0025862046 0.09046717 -0.31272244
000020 cb 2e 20 be 16 67 8a be 9d 4e 4f be 83 8b 9a be
       -0.1564285 -0.27031773 -0.20244832 -0.30184564
000030 ea 40 33 3d f9 62 64 3e 9b 3e 16 be fa 0d ed be
       0.04376308 0.2230338 -0.1467232 -0.46299726
000040 57 49 38 be 11 f2 5e 3d d8 1b 44 be b9 1f d3 3d
       -0.17996727 0.05443007 -0.19151247 0.10308785
000050 63 aa e7 bd 33 31 18 3e 59 58 df be 01 74 49 be
       -0.113117956 0.14862518 -0.4362209 -0.19673158
000060 85 50 cf bd 4b 4f 21 bd b5 dd 2f bd 98 9d 16 3d
       -0.1012278 -0.03938226 -0.042936046 0.036771387
000070 76 90 49 be 00 04 4d be ae fb 81 be 77 4f 18 3e
       -0.19684014 -0.20021057 -0.2538733 0.14874063
000080 47 79 4d be 08 64 a6 3d e8 50 a5 bd fc 8c 76 be
       -0.20065795 0.08124548 -0.08072072 -0.24077219
000090 06 09 4d 3b ec cb 72 be 5f f3 43 be 1d 70 d1 3b
       0.0031285896 -0.23710603 -0.19135807 0.006391539
0000a0 da 4c f5 bd 33 76 16 be 15 2d 0c bf 02 6f 6d 3e
       -0.11977549 -0.14693527 -0.5475629 0.23186877
0000b0 f8 ac a9 be 68 7b 9f be eb 96 10 bd 8c fe 44 be
       -0.33139777 -0.3114884 -0.035300177 -0.19237727
0000c0 8b d3 fc 3c 6e 91 b9 be 96 7e ce 3b 73 0a 40 3e
       0.03086259 -0.36243767 0.0063017113 0.18753986
0000d0 a8 37 28 bd be bd 02 be 0d 84 a8 be dd 61 9e bd
       -0.041068703 -0.12767693 -0.32913247 -0.0773351
0000e0 6c 22 d1 be 6d c2 82 be ad 83 9b bb 8a 9b 1b bd
       -0.40846574 -0.2553896 -0.0047459216 -0.03799013
0000f0 a3 4e 74 be 09 0e 36 be 11 a0 0a bf 43 95 cc be
       -0.23858123 -0.17778791 -0.5415049 -0.39957628
000100 c2 48 2c be 0e 42 82 be 01 b5 1b be 47 a7 5c 3e
       -0.1682463 -0.2544102 -0.15205766 0.21548186
000110 c0 14 ff bd 50 3e 98 3d e0 30 e1 3d 71 2e 9e be
       -0.124551296 0.0743376 0.1099565 -0.30894807
000120 a2 8a a5 be 38 c6 94 be 0a 5b 17 3d 9a f5 8b 3d
       -0.3233233 -0.2905748 0.036952056 0.06833954
000130 d5 20 87 be 5f 21 9b be 56 48 73 be 3f 45 33 3d
       -0.26392236 -0.30298898 -0.23758063 0.04376721
000140 b4 a9 4a be 18 1f e0 3d e9 25 9d bd 4c ed c3 bc
       -0.19791299 0.10943431 -0.076732464 -0.023916863
000150 ff 1e 5a be 0a f5 73 be 46 11 91 bd 02 d0 d1 be
       -0.21300887 -0.23823944 -0.07083373 -0.4097901
000160 a2 c5 39 be 5f 96 1a be 6a 0a 38 be 41 8d a3 be
       -0.18141797 -0.15096425 -0.17972723 -0.31943706
000170 6d 0b 97 bd c9 59 84 bd 12 9f 99 be 20 02 19 be
       -0.07375226 -0.06462438 -0.30004174 -0.14942217
000180 22 37 14 3d 5d 0b a7 bd 8d 2f 12 ba f7 fa 3d be
       0.03618539 -0.08156464 -0.00055765436 -0.18552767
000190 ad ba 13 3c cf 5a 05 bd 4d 16 69 be 08 ab da bd
       0.009016675 -0.032557305 -0.22762413 -0.10677153
0001a0 a1 a2 9f be 2b 5e 37 be 55 41 c0 bd ba a6 1e be
       -0.31178764 -0.17907016 -0.09387461 -0.15493289
0001b0 e3 25 a1 bc 36 a9 81 be 19 62 8f be e9 80 e8 be
       -0.019671386 -0.2532441 -0.2800453 -0.4541085
0001c0 44 44 63 be ca 79 20 be 3e cc e8 bd 10 43 42 3e
       -0.2219401 -0.15671459 -0.11367081 0.18970895
0001d0 b4 3c 23 be bb 72 60 be 2b ab 9c be 60 ea e8 bd
       -0.15941125 -0.21918766 -0.3059934 -0.113728285
0001e0 a3 3f 85 be 59 db d1 be d5 50 0e 3c bc f7 58 bc
       -0.26025113 -0.4098766 0.008686264 -0.013242658
0001f0 70 d1 ba be d9 8d 2b bc d4 57 d4 3d 48 d9 15 be
       -0.36487913 -0.010470831 0.103683144 -0.14633667

network_body._body_endoder.seq_layers.2.weight f4 [128, 128]
000000 b2 9e 6d be 22 7f 57 3e 63 df a4 be 21 70 c7 bd
       -0.23205069 0.21044591 -0.3220168 -0.09738184
000010 2a 0a ed be ec 29 8e be 20 4e 64 be 1f 2e 69 be
       -0.46296817 -0.2776636 -0.22295427 -0.227715
000020 2a 65 03 bf 5d 49 db be 62 59 bf bc f7 62 82 be
       -0.5132624 -0.4282941 -0.02335805 -0.2546613
000030 ef f0 1d 3e 11 3d bd 3b a8 29 4d bf 2b 56 a4 be
       0.1542394 0.005775102 -0.8014169 -0.3209699
000040 2b c8 99 be bf 80 40 be ca bc 7e be b8 1a 33 be
       -0.3003553 -0.18799113 -0.24876705 -0.17490661
000050 c7 00 4b 3e a8 4c 27 bf e7 31 0a 3c 8a 95 41 3e
       0.19824515 -0.65351343 0.008434749 0.18904701
000060 24 64 83 bc d2 b9 3c bf d0 d0 57 be 30 f0 81 be
       -0.016038962 -0.7372104 -0.2107575 -0.2537856
000070 36 d7 63 bf 44 ed 23 3e 1e 8c ac be 0e 3e 79 be
       -0.8900026 0.16008478 -0.3370065 -0.24340078
000080 ac 8c f6 be 21 c7 8d bd 21 46 3a be 12 7f e9 3e
       -0.481542 -0.069227464 -0.18190815 0.4560476
000090 7a b9 d4 bb 19 23 12 3e 43 47 b2 be 9e e9 32 3d
       -0.006491837 0.14271201 -0.34819993 0.043679826
0000a0 68 40 90 be af ad 03 3e b9 7b 75 bd f6 5f 22 3e
       -0.28174138 0.12859224 -0.059932444 0.15856919
0000b0 e7 e5 e5 3c 90 9a 19 3d 54 d8 17 bd d5 38 f1 bd
       0.028063728 0.037500918 -0.03707154 -0.11778418
0000c0 c1 cd 88 be eb 00 dc be db 7d 9d be e6 85 98 3d
       -0.26719478 -0.4296945 -0.30760083 0.07447414
0000d0 69 b0 75 3e fa c2 60 3e 7d 32 c5 3d cb ce bb be
       0.23993076 0.21949378 0.096287705 -0.36681208
0000e0 d4 f8 11 be 50 89 c7 be 3a 9a 84 3e 20 f3 2f bc
       -0.14255077 -0.3897195 0.25898916 -0.010739118
0000f0 e0 ee bd bb 12 8a 5a 3d 36 ab 25 be 6c ef 0b 3d
       -0.0057962984 0.05335433 -0.16178593 0.034163877
000100 1b 81 8c 3e 61 28 81 3e cd aa 8c be 49 d8 e6 3d
       0.2744225 0.2522612 -0.2747406 0.11271722
000110 81 ea 77 3d 4a 0a 0d be 96 11 2e 3d f4 ca c6 bd
       0.060526375 -0.13773456 0.04249724 -0.09706679
000120 24 30 c7 3a bf 5c 6c be f9 7f 3e bd 89 03 31 3e
       0.0015196842 -0.23082255 -0.046508763 0.17286505
000130 97 82 31 3d b8 cd 08 3e 25 d9 3d bd ee ce ed bd
       0.04333743 0.13359725 -0.046349663 -0.11611734
000140 37 ba 27 be 0d 53 8b be 8f 67 82 be bf e3 fe 3e
       -0.16379629 -0.272118 -0.25469634 0.4978313
000150 73 fd fc 3d a5 d1 8a 3e 05 8f 74 3e 6f 81 a7 be
       0.12353029 0.2711307 0.23882683 -0.32715937
000160 e6 71 a2 3e d9 b0 e6 bd fe ec a4 be f5 a6 3b 3e
       0.31727523 -0.112642 -0.3221206 0.18325408
000170 50 98 7b 3e 12 ee 8f 3e c0 e0 55 be bc d7 2c 3e
       0.24569821 0.2811132 -0.20886517 0.16879171
000180 db c4 09 3e ce 66 a3 be d7 87 14 3e ec 82 ce bd
       0.13454 -0.3191437 0.14504944 -0.10083565
000190 ef e2 ea 3d 0c f1 84 3e 3b e4 25 3e 8b dc ca bd
       0.114690654 0.25965154 0.16200344 -0.099053465
0001a0 c1 89 66 3e 86 2c b4 bd 1d 0f 47 bd fc 5d 7b be
       0.22513486 -0.08797555 -0.048598398 -0.24547571
0001b0 0d 68 5b bd ee 2c 5b be bf ca 07 3d b1 f0 6f bd
       -0.053566027 -0.21403858 0.033152338 -0.05857915
0001c0 45 82 80 3e 63 f9 92 3e 7a 32 e4 bd d4 24 a0 be
       0.25099388 0.28705892 -0.1114244 -0.31278098
0001d0 09 22 b3 3e 85 8d ee 3d fd 36 ef be 7a d3 bc 3d
       0.34986904 0.116480865 -0.4672164 0.092200235
0001e0 81 7c 06 be 56 15 97 3e f3 c4 99 3d 6c e8 45 3e
       -0.13133432 0.29508466 0.07508268 0.19326943
0001f0 9f 56 a1 3e 7c 2a d9 3b 41 da 00 3e aa 68 b6 3c
       0.315114 0.006627379 0.12583257 0.022266705
000200 46 3d 71 3e 31 98 4c be d7 37 e0 bd f5 d5 b5 bd
       0.2355853 -0.19979931 -0.109481506 -0.088787
000210 4d 59 92 be 7b 98 ed 3d 95 1b 25 3c f3 43 ba be
       -0.28583756 0.11601349 0.010077377 -0.36379966
000220 fc 6e 88 bd d7 93 07 3e 32 93 a5 be f1 50 4e 3e
       -0.066617936 0.1323999 -0.32338864 0.20148064
000230 53 05 15 be 26 ef 14 3e e6 35 d8 3d 5c f6 86 be
       -0.14552812 0.14544353 0.10557155 -0.26359832
000240 62 92 90 bd c9 9b 40 be e6 de 71 3e 73 25 54 3e
       -0.0705917 -0.18809427 0.23620185 0.2071741
000250 1b cd 1e be 63 c3 1c ba ee a5 70 be 03 1c ec be
       -0.15507929 -0.00059800426 -0.23500797 -0.4611512
000260 f5 c1 03 3e 09 a5 14 3e 9c 3c 0a be f1 69 01 3e
       0.12866957 0.14516081 -0.13499683 0.1263807
000270 d5 8e dd 3c ce 83 32 be 65 45 dc be 13 98 31 be
       0.027045647 -0.17433092 -0.43021694 -0.17343168
000280 82 95 d5 bd 24 89 c2 be 09 b2 fa bd de 5c e0 be
       -0.10428907 -0.37995255 -0.12240989 -0.43820852
000290 f6 76 14 be 90 3e d8 bd 12 9a 51 3e fc 2b 4c be
       -0.14498505 -0.10558808 0.2046893 -0.19938654
0002a0 c1 ef 88 be ab 0e 9d be 91 ad ac 3d d6 b7 ac bc
       -0.26745418 -0.30675253 0.08431543 -0.021083754
0002b0 a1 b6 86 3e de d1 2f bd c8 9a d5 bd 5c 5c 76 3d
       0.2631121 -0.042924754 -0.10429913 0.060146675
0002c0 e9 ce 18 3e f9 98 80 be 09 cd 06 3e 6a 4b 4f be
       0.1492268 -0.2511671 0.13164152 -0.20243612
0002d0 b9 f9 c4 be 7e b2 0e be 26 79 aa bc dd 49 3a be
       -0.38471773 -0.13935277 -0.020809721 -0.18192239
0002e0 e1 55 41 3d ea 18 e1 bc f3 4d 06 be 34 a1 db bd
       0.04720104 -0.0274777 -0.13115673 -0.107241064
0002f0 b0 f0 22 be 10 f6 aa 3b 45 67 02 3d ec e8 50 be
       -0.15912127 0.005217321 0.031836767 -0.20401353
000300 1f 42 0c 3d 9d bc dd 3d 07 7e 84 be 23 c6 4a 3e
       0.034242745 0.10826991 -0.258774 0.19802146
000310 76 71 d1 bd ed 9b ea bc ea 36 fd 3c ac 0b bf be
       -0.10226719 -0.028638804 0.030909974 -0.37313592
000320 8e 8f 15 bf b5 8e 70 be ac 1a eb 3d db 12 cc be
       -0.5842217 -0.23491938 0.11479697 -0.39858136
000330 30 7d e3 be da aa cb bd f0 73 b5 bd 4e e3 9f bd
       -0.44431448 -0.09944697 -0.08860004 -0.07807027
000340 d5 4d 90 3e c1 dd 52 bd 9d f4 09 be 12 ee 7c be
       0.2818438 -0.051481012 -0.13472219 -0.24700192
000350 19 3c 8f 3a 6b ea bf be 0b be de bd db 9f 16 bf
       0.0010927945 -0.37483534 -0.108760916 -0.5883767
000360 f8 5e ae b9 29 a2 c8 3d 13 ab 89 bd 9d bb 84 be
       -0.00033258623 0.097965546 -0.06722083 -0.25924388
000370 61 2d 18 3d 89 d9 95 bd f8 bc 5c 3e d9 9e 81 be
       0.03715265 -0.07316882 0.21556461 -0.25316504
000380 b3 28 20 3e 72 3d 61 3e 7a b6 d2 3c ff 6b ce be
       0.15640526 0.21996096 0.025721777 -0.4031677
000390 60 97 30 be a6 4e 22 be 15 18 76 3d e9 2c 12 bf
       -0.17245245 -0.15850314 0.06008156 -0.5709978
0003a0 f1 f5 aa be 9f 4a 6a 3d 66 fc 90 be 0b 68 df be
       -0.33390763 0.05720007 -0.28317565 -0.43634066
0003b0 ea 1a 0b bf 4f 90 29 3d 43 3a c1 3d b2 89 1d bf
       -0.5433794 0.04139739 0.09434941 -0.6153823
0003c0 83 ad 3c 3c be 3a be 3d 39 3a c8 be a9 63 a2 3d
       0.011515978 0.09288548 -0.3910692 0.07929165
0003d0 f5 1a af be df 3a ee bd 90 9a 7a bd 44 d2 9b 3e
       -0.34200254 -0.116323225 -0.06118256 0.30433857
0003e0 85 17 82 be b4 f7 c8 bd b4 89 fc be c2 38 fc bd
       -0.2540857 -0.098128706 -0.4932381 -0.12315513
0003f0 46 ba 14 bd 4f 61 14 be 4e a1 00 bd f2 39 2f 3d
       -0.036310457 -0.14490245 -0.031403832 0.04277987

network_body._body_endoder.seq_layers.4.bias f4 [128]
000000 03 ec c3 3e 7f 4d f9 bd 21 8b 29 3d 92 72 7b bd
       0.38266 -0.12172984 0.04139245 -0.06138856
000010 bb b0 01 bf 0d 5e 44 be 9f 4b 15 be 9a ef 64 be
       -0.50660294 -0.19176503 -0.14579628 -0.22357026
000020 75 3a ea be 97 16 95 be 6e 23 ce be 9c 00 52 bd
       -0.45747724 -0.29118797 -0.40261406 -0.051270112
000030 c1 0a 2b be aa ef c2 bb 0c 22 f1 bd ad b9 c8 bd
       -0.16703321 -0.0059489803 -0.11774072 -0.0980104
000040 59 4b 6f be 81 e6 52 be 15 62 67 be 6e ce b8 be
       -0.23368587 -0.20595743 -0.22596009 -0.36094993
000050 72 48 82 bd 88 6b c9 bc fd 5b a4 be dc e9 18 be
       -0.06361474 -0.024587408 -0.3210143 -0.1493296
000060 5d 87 32 be c9 67 01 bf 43 84 62 bd 13 85 ef be
       -0.1743445 -0.5054899 -0.055301916 -0.46781215
000070 6b f2 55 be c1 96 ba be 2e 5c a3 be d0 e5 ba be
       -0.20893256 -0.3644314 -0.31906265 -0.36503458
000080 56 3a 79 3e 9f 97 e3 bb f1 d3 16 bd 27 e8 03 bf
       0.2433866 -0.006945565 -0.036823217 -0.5152611
000090 67 3a fa bd fa 55 f4 3d cd ae 64 be f6 2c 0d 3e
       -0.122181706 0.11930461 -0.22332306 0.13786682
0000a0 45 11 64 be d7 4e 2d be d9 db 6d be 03 dd 22 be
       -0.22272213 -0.16924606 -0.23228396 -0.15904622
0000b0 0b 41 8d be b9 4b 3d be d3 bc ca be 27 ff e1 3d
       -0.27588686 -0.18485917 -0.39597186 0.110349946
0000c0 11 88 0a be 74 f5 60 be 31 99 a7 be 37 ff 6e be
       -0.13528468 -0.21968633 -0.32734063 -0.23339544
0000d0 2c 18 91 be 8a da 41 be dd b6 66 be 96 ce 48 be
       -0.28338754 -0.18931022 -0.22530694 -0.19610056
0000e0 76 c7 1a be 80 49 79 bc 74 3b 0e be cd a8 13 be
       -0.15115151 -0.015215278 -0.13889867 -0.14419861
0000f0 2a 6c a5 3e 07 71 1f be 77 3d 87 be 60 15 82 3d
       0.32309085 -0.1557046 -0.2641408 0.06351733
000100 c1 ab 2c be df 51 6e bb 29 d2 96 3d c3 36 b4 be
       -0.16862394 -0.0036364717 0.073643036 -0.3519803
000110 9e 60 a2 3e f6 3d c2 be fc 21 49 be ea ad 37 bc
       0.31714338 -0.37937897 -0.1964187 -0.011210898
000120 07 dc 77 be e2 b8 97 3d 43 f5 16 be c6 04 13 be
       -0.24205028 0.074083105 -0.14741997 -0.1435729
000130 bc 65 19 be 22 0a dc bd 34 16 d0 be 11 cc b5 be
       -0.14980215 -0.1074412 -0.4064194 -0.35507253
000140 c4 c3 85 be 44 97 a7 be 76 4e 3c be eb ce c0 be
       -0.2612592 -0.32732594 -0.18389305 -0.37657866
000150 8d 11 2b be 30 b6 be bc 0f 24 92 bc b3 6b 09 3e
       -0.16705914 -0.023280233 -0.01783946 0.1341999
000160 a5 46 91 be ad 82 14 bd 46 ab d4 be a8 45 41 bd
       -0.2837421 -0.036257435 -0.4153692 -0.04718557
000170 a4 d7 84 bd 36 83 0a be a1 1c 55 be eb 28 46 bd
       -0.06486443 -0.13526616 -0.20811702 -0.048378866
000180 22 e6 2b ba 09 68 9e be 26 64 ab bb c6 b9 a7 3d
       -0.0006557425 -0.30938748 -0.0052304445 0.0818973
000190 86 67 80 be 38 34 d5 be 9c d5 b0 be 10 42 15 3d
       -0.25078982 -0.41641402 -0.3453797 0.036439955
0001a0 01 25 aa be 07 f3 eb 3d 80 24 65 be 04 a9 cc 3e
       -0.33231357 0.11520963 -0.22377205 0.399727
0001b0 6f 63 bb bd 92 99 24 be ab c4 8f 3d 9f 33 1e be
       -0.09149825 -0.16074207 0.07019933 -0.1544938
0001c0 a4 b6 4c be 56 04 2f 3e 6e 3c a2 bd e3 9c 5f be
       -0.19991547 0.17091498 -0.07921682 -0.21837191
0001d0 52 64 49 be 5f 05 6b be 47 29 c3 bd 6d 23 33 bc
       -0.19667175 -0.22951268 -0.095293574 -0.010933739
0001e0 b3 8b 2c be 84 ed 6a 3e 85 7b 28 be d9 f4 ec 3d
       -0.16850166 0.22942168 -0.16453369 0.115701385
0001f0 ff 27 a6 be 3c e3 d5 be a2 f6 19 be d6 51 32 3d
       -0.3245239 -0.4177493 -0.15035489 0.043535076

network_body._body_endoder.seq_layers.4.weight f4 [128, 128]
000000 dd 85 b0 3d dc 35 f7 bd e6 ff b1 be 15 c2 65 be
       0.086192824 -0.1207082 -0.34765548 -0.22437318
000010 66 f1 ea be 6c 8c 12 be 26 8d 20 3d 55 59 d3 be
       -0.45887297 -0.14311379 0.03919711 -0.41279092
000020 f0 d3 a1 3e 72 7a 31 be 03 8a 7a bd 1f f2 9b be
       0.31607008 -0.17331865 -0.061166774 -0.3045816
000030 26 0a e4 be c4 dd f0 be b9 21 3f bf db af 7c bd
       -0.44538993 -0.47044194 -0.7466083 -0.061691146
000040 ca bd 3c be a0 d4 4a 3e a1 39 e5 3d 08 d2 06 be
       -0.18431774 0.19807673 0.111926325 -0.13166058
000050 4a 66 a4 be e0 1e 49 bc 36 bd 14 bf 46 2d 24 bd
       -0.3210929 -0.012275428 -0.5810121 -0.04008224
000060 4d 26 86 3e fc 5c d5 3e 58 a6 61 bd ec 39 2a 3d
       0.26201096 0.41672504 -0.05509028 0.041559145
000070 fc 29 dc bd 88 71 70 3e 5c c7 4e 3d f6 db be 3e
       -0.107501954 0.23480809 0.050483093 0.37277192
000080 28 c4 4a bc 04 89 fb be e0 61 03 bf 62 5f cc bd
       -0.012375869 -0.49127972 -0.5132122 -0.0997913
000090 37 cb d4 3d 99 d5 26 be 70 bf eb bd 47 6c 44 be
       0.10390323 -0.16292419 -0.11511123 -0.1918193
0000a0 e9 1e 92 3e 69 e8 57 be 87 74 26 be 2f b7 ee bd
       0.28539208 -0.21084751 -0.16255389 -0.11656033
0000b0 cd 25 19 bf 30 47 22 be 7e 3b 80 bd ea 32 d2 3d
       -0.59823304 -0.15847468 -0.06261347 0.10263617
0000c0 99 80 18 be 9e dd 57 3d bd be a1 bd 62 0e a5 3b
       -0.14892806 0.052701585 -0.078977086 0.005037115
0000d0 ce 38 62 be 78 52 5e 3e 0c be 94 be da 40 21 bf
       -0.22091982 0.21711147 -0.29051244 -0.6298958
0000e0 9d 03 72 be 72 25 94 be ec 45 dc bd 5d 69 5a be
       -0.23634191 -0.28934819 -0.10755524 -0.21329255
0000f0 d6 8a 57 3e f6 45 ea be 82 43 0d bf eb 7a 97 bd
       0.21049055 -0.457565 -0.55181134 -0.073964916
000100 46 58 25 3e 28 1a 95 3e 98 8d e4 3e 6d 36 42 3e
       0.16146955 0.29121518 0.44639277 0.18966074
000110 53 f6 ad be 5b 55 37 3d 4c 0a 4b 3c c7 97 e2 be
       -0.33976993 0.044759136 0.012392592 -0.44256422
000120 ac 5d 3c be 44 a6 86 3c d7 05 02 bf 86 55 45 bf
       -0.18395108 0.016436704 -0.5079016 -0.77083623
000130 56 6a 30 3b f3 0c c0 be 81 cf 4d 3e 99 ed f5 be
       0.002691885 -0.3750988 0.20098688 -0.48032835
000140 73 e3 6b bc 0a 15 08 bf b7 8f f0 3c 04 2f 3d be
       -0.01439749 -0.53157103 0.029365404 -0.18474966
000150 f5 87 b1 3e 4b 98 50 be 57 df 6f be 1e 6b de be
       0.3467404 -0.20370595 -0.23425041 -0.434411
000160 53 bd 9f 3e 4f 58 d8 be 64 07 87 bc 86 e6 cb be
       0.3119913 -0.42254874 -0.016483016 -0.39824313
000170 81 71 72 bd d1 ea 1e 3e 59 6b 5a be 48 9a 8d be
       -0.059190277 0.15519263 -0.21330012 -0.2765677
000180 ad 52 2b bf ae f8 80 3e ac e4 b9 be 8e 64 6d bf
       -0.6692303 0.25189728 -0.36307275 -0.9273156
000190 d8 d1 79 bd c0 a3 15 3d 20 07 fb 3c 88 b3 6e 3e
       -0.06099114 0.036533117 0.030643046 0.23310673
0001a0 7c 8b 87 be d6 44 e9 be e5 71 74 be 30 da 29 3e
       -0.26473606 -0.4556033 -0.23871572 0.16587138
0001b0 e7 6d 94 be 2b 59 da be b7 54 04 3e a7 92 fb be
       -0.289901 -0.42646155 0.12922941 -0.49135324
0001c0 b4 8c c0 3c 9f 45 8c bd 60 0f 05 bf 91 c6 ce be
       0.023504592 -0.06849217 -0.51976585 -0.4038587
0001d0 13 f8 41 3e 2c 0b c9 be bc 3c 1d 3d be 9d 7c 3c
       0.18942289 -0.39266336 0.038388 0.015418468
0001e0 bb a9 b6 be 9e 87 bb be 8b 10 90 bd 1d ae 63 bd
       -0.3567637 -0.36626905 -0.07034405 -0.05558597
0001f0 f5 d3 65 be b1 c5 40 be 95 c1 f7 be d5 14 c0 3d
       -0.22444136 -0.18825413 -0.4838988 0.093789734
000200 d7 83 9d be d4 09 ae bc d0 25 da 3d 9a 51 79 be
       -0.30764648 -0.02124492 0.106517434 -0.24347535
000210 49 52 8b be 7c 49 26 be 4a 15 0d bf fb 20 20 be
       -0.27211216 -0.1623897 -0.5511061 -0.15637581
000220 7f 19 01 3f d5 b6 49 3d ca ff 97 3e a8 c0 83 be
       0.5042953 0.049246628 0.2968734 -0.25732923
000230 9b 09 b5 be 58 89 bf bb b1 06 14 bd 1e 0e 98 be
       -0.3535889 -0.00584523 -0.036139194 -0.2969827
000240 c8 3d 63 3d 4a 12 cc be c7 5c b1 3e 9d ad 43 bd
       0.05547884 -0.39857703 0.34641096 -0.047772992
000250 59 f9 1e 3d cb 84 ed bd b8 18 a2 be 66 1d 3c 3d
       0.038812015 -0.11597594 -0.31659484 0.045926474
000260 ad 54 05 be 62 83 b2 3e cd ad 69 3e 43 a4 d1 be
       -0.13020582 0.34865862 0.22820206 -0.40945634
000270 df 70 55 be f9 43 05 3d 7c d4 e8 3e 6c ba 0a be
       -0.20843838 0.032535527 0.45474613 -0.13547677
000280 c1 53 79 3e f7 0d 01 3c 59 22 0f 3e b3 c1 3f be
       0.24348356 0.007876865 0.13977946 -0.18726234
000290 3c b1 d4 be 17 ee 60 bd e2 77 6d 3e d5 22 29 bd
       -0.4154147 -0.05491456 0.23190263 -0.041292984
0002a0 7d 19 21 3d 33 65 91 be 9a 0d 0f bf 54 eb f0 bd
       0.03933095 -0.2839752 -0.5588013 -0.11763635
0002b0 f5 58 8e bd fa 62 04 3e ed e9 3d be 9c 6f 4d be
       -0.06950561 0.12928382 -0.18546267 -0.20062107
0002c0 9b 5f d4 be 3d 4c 3f 3f a1 ff 19 be bd 9b 9a 3d
       -0.4147919 0.74725705 -0.15038921 0.07549236
0002d0 77 2a 4b 3d 1e 48 00 3e 4f ce b2 be df 34 46 bd
       0.049601045 0.1252751 -0.34923026 -0.048390266
0002e0 9c 23 a0 be c0 3a 85 3e 53 58 13 3e 76 7c 7d 3c
       -0.31277168 0.26021385 0.14389162 0.015471568
0002f0 59 e7 7c be 8d 5f 16 bf 8d de 9b bd 23 78 fc be
       -0.24697627 -0.5873955 -0.076108076 -0.49310407
000300 e3 2a 85 be 4f 54 ca 3c 30 71 37 be d2 97 de bd
       -0.26009282 0.024698405 -0.17914271 -0.10868801
000310 1e 89 5d 3e 36 9a 5b be 9a 26 93 bd 24 00 32 3e
       0.21634337 -0.21445546 -0.07185097 0.17382866
000320 8f 26 8f be ba fe 17 be 82 12 58 3e ca b9 89 3d
       -0.27959105 -0.14843264 0.2110081 0.067248896
000330 d3 ee 2c 3c 70 40 3a 3e fa 3a 12 3d 1f 43 08 be
       0.010554987 0.18188643 0.035700776 -0.13306855
000340 4d e1 11 bd 50 9e 0b bf 96 9a c9 be 0e 88 01 bf
       -0.035615254 -0.5453844 -0.39375752 -0.5059823
000350 cc eb 4b bd b2 67 82 be 9a 2f 9d be b4 bf 8f be
       -0.04978542 -0.25469738 -0.3070038 -0.28075945
000360 5a 0d 4b 3d 24 b3 19 3e 27 0d a3 be 72 c0 a8 3e
       0.04957328 0.15009743 -0.31845972 0.32959324
000370 8b 16 de 3e 7c 8e 91 3e bf ed 71 bd fb e7 69 be
       0.43376574 0.2842902 -0.059064623 -0.228424
000380 87 86 e1 bd e6 6d 74 bd 71 a9 32 bf ee be a4 bd
       -0.11011987 -0.05967512 -0.697898 -0.080442294
000390 16 11 2d be 8d d0 26 bd 93 24 93 be 06 87 d5 3c
       -0.16901049 -0.040726233 -0.2873884 0.02606536
0003a0 cb 70 47 be e6 5c 9f be 3d fc 27 be 64 52 53 3e
       -0.19476621 -0.31125563 -0.16404815 0.20636898
0003b0 b0 6c 09 bf b1 93 0e 3f d9 07 f0 3e 5c 0c 43 3e
       -0.5368147 0.5569411 0.46880987 0.19047683
0003c0 fb d9 33 3e d1 57 a6 3d ab 10 d2 bd c3 c1 94 be
       0.17563622 0.081222184 -0.102570854 -0.29054078
0003d0 c0 e2 e9 be 74 93 68 bd 1d 66 80 be b4 71 b7 bd
       -0.4568081 -0.056781247 -0.25077906 -0.08957234
0003e0 75 e3 6f 3e c7 64 ba bd eb 80 b8 be 00 20 13 3d
       0.23426612 -0.09101253 -0.36035857 0.03591919
0003f0 f0 a2 f0 3c 00 16 28 bf dd a8 7b 3e 9c 6e 3f be
       0.02937457 -0.6565857 0.24576135 -0.18694538

network_body.observation_encoder.processors.0.normalizer.running_mean f4 [25]
000000 a8 b5 37 43 67 49 a0 41 94 4e dc bd 71 d1 3a 40
       183.7096 20.035841 -0.10757175 2.9190333
000010 91 66 60 c0 93 4c aa 3a c8 30 33 bf 2e c4 29 ba
       -3.5062602 0.0012992792 -0.6999631 -0.00064760714
000020 c0 c1 f5 37 73 63 d8 3b 89 4d b9 3e 32 88 0b 3f
       2.9296498e-05 0.006603652 0.36191967 0.5450469
000030 03 8a c8 bb cc 4b 14 be 91 20 51 bf 7c e6 75 3f
       -0.006119968 -0.14482039 -0.8169032 0.96054816
000040 55 07 0a bc 08 9d 7f 3f 79 9c 6b bc 2f 73 7b 3f
       -0.0084246 0.99848986 -0.014380568 0.9822263
000050 cb 69 56 3d a9 55 56 ba 9c c2 ed 3f 6a f0 a8 be
       0.052346986 -0.00081762165 1.8575015 -0.3299592
000060 2c fc 43 3f
       0.7655666
