Assets/NNModels/SpherePilotAgent.onnx (onnx, 87033 bytes, 13 tensors)

77 f4 [23]
00000000: ab16 1641 02dc 8940 927e 2341 5ce2 a140
00000010: f9aa 0341 b0f8 0341 e1c2 0441 7822 8642
00000020: f902 5142 f065 0840 9971 c040 3560 0840
00000030: f8a1 023e f7b8 103e 0830 153e 84b1 773e
00000040: ff5e 723e bf93 713e 9169 733b bf84 0f41
00000050: 9a51 0242 601a 0041 053a d23e
9.380534 4.3081064 10.218401 5.0588818 8.229241 8.248215 8.297578 67.06732
52.252903 2.1312218 6.013867 2.130872 0.12757099 0.14133058 0.14569104 0.2418881
0.2366905 0.23591517 0.003714178 8.969909 32.57969 8.006439 0.4105989

action_model._discrete_distribution.branches.0.bias f4 [3]
00000000: c0ad bebd 5ea3 603e ad4d 43be
-0.09310484 0.2193732 -0.190726

action_model._discrete_distribution.branches.0.weight f4 [3, 128]
00000000: c21d db3d 050e b93d 2ca3 51bd 7068 cabc
00000010: 03db 0c3d 61e1 17be 88b9 96bd 9006 02be
00000020: cc18 92bd 4207 f4bb 4af5 e23d ea1d 023e
00000030: bbb4 0b3e 3c94 c0bd 93ad fd3d 963d d23c
00000040: 3e2b ebbd 9a24 febd 6d35 013d 9670 97bb
00000050: 0857 f1bc 34d6 64bd 9439 d0bd 223b 843d
00000060: 595f 25bc b6ce 783d f490 983c aaa9 803e
00000070: 60aa 2bbc fe5d 3ebc fd8f 7e3d 55c3 97bd
00000080: 226e 02bd 0421 c73c b482 fabd c3bc 84be
00000090: 4961 55bc 5d8d 493a ba37 08be d548 813d
000000a0: 15f1 b9bc f42a fbbd a1e1 81bc 3867 00bd
000000b0: 69a8 0c3d 840b cd3c bfee 943d 585d f7bc
000000c0: 2b35 5cbd ca2c 1ebe 0778 7a3d 85ee debd
000000d0: 0895 07bd ca21 293c 181c d33c 38c7 09be
000000e0: 5523 2dbd 1370 acbd ad55 913d dfe1 423d
000000f0: 1534 683d fd7e 1e3d b6d5 94bd ffab e237
00000100: d256 243a 3faf fdba a5a2 4dbe 0546 66bd
00000110: fdd4 e4bd 37f0 ea3d bd4d 243e b2fc 14bd
00000120: ddb6 263d 8229 96bc f1a8 5e3d 947f f9bd
00000130: 3aad 2abd 5928 cbbd ca1e 12bd 797d 023d
00000140: 68aa 053d c45a 2a3d 5b5a b6bc e6cc 1bbe
00000150: cfae 633d 73d4 c13c e0a9 4dbc 8a7e 45bd
00000160: 4ac7 53bd c742 713d 54af 933d 8411 84bd
00000170: 74f4 1a3a 006e 80bc de2c a9bd aadd 193d
00000180: 13c7 d7bd 6dfe e5bd c03c 293d c121 aabd
00000190: b729 de3c cd3f 86bc 4835 9f3d 4c53 e63d
000001a0: e8b6 a6bb b561 ccbc 3134 93bc 557e 04bc
000001b0: 6b16 973c 7c71 6bbd 0b2a 8b3d 84bf a63c
000001c0: 9ff5 2ebc a5b6 93bd 67f1 d5bc ecfe a13c
000001d0: 0c73 b9bd cd66 a33c 2d58 823d 9b26 043d
000001e0: 12a0 5a3d 8192 8a3c b028 b13b ea34 523e
000001f0: 9028 c8bc a538 95bc 65c1 823d 2e02 9cbc
00000200: 0224 1cbe ce04 6a3d 3f42 d13d 3510 d0bd
00000210: 2346 cf3d 9091 603e 0a2e 83bd b5cd dd3d
00000220: 0eda 293e dad3 12be 4afd 72bd 3d85 b4bc
00000230: 4ac5 bcbd 105c 6ebd bf25 183a 4910 f5bd
00000240: 0cb5 093e fbb2 b8bd 0b7b 513d 44f8 1b3e
00000250: cfb1 053e 580b 8f3c 1d3a 543e 8d2c ec3c
00000260: 89be 813d e748 8d3d a7bd 7cbb dd33 9abd
00000270: 5c09 213a dce7 ca3d 5c71 80bd 1559 0d3e
00000280: f257 9dbb 7e44 8fbe 9af0 113e b599 083e
00000290: a7e5 4f3d 0ebb 86bd d302 3b3e 9199 38be
000002a0: 0f19 233c e51e afbd 8e13 073b 4e01 b9bd
000002b0: 3777 0e3c 9940 3bbe 4e9a 74bd c37f 243e
000002c0: 529b 46be 0267 f7bc 6197 a7bd 7652 ed3d
000002d0: b605 90bd 8d62 b33c 4fd4 44be 61ee 413e
000002e0: eb3f bd3d 94ca 1b3e e44c 2cbc 46e6 39bd
000002f0: 9310 f73b a6f4 08be c0fd 163e d4db d43b
00000300: ce1e 6b3d aada 5ebe 22f9 8f3d 1420 3fbe
00000310: 4847 04bb 89e6 9dbd f1b1 98bc 55f7 8c3d
00000320: 7b5b 1c3e 13f4 053d 4fa9 42be 1254 97bd
00000330: e372 473e b1c4 2a3e 4f73 13bc 72e7 e63c
00000340: 3eff d73d 5f19 f63d 8bf4 bf3d feb6 ee3d
00000350: 3acc 073e 1935 0f3d fd27 e43d 7248 983d
00000360: 1f75 ad3c 5db7 a2be 21f1 073e e134 553d
00000370: a199 bcbd e974 2d3e 9377 653c c455 1ebe
00000380: 8881 df3d c37f 1bbd a581 a63d 9bb1 2e3e
00000390: 5a5b 7dbd 230d fa3a a004 7bbd 6cd1 17be
000003a0: af12 c03d c495 dfbd f769 d8bd 185c b13c
000003b0: d53b aabd 9f15 c83d 168a 35be 8e94 ee3d
000003c0: d2af 97bd f37f c73d 3ad8 45be 66a1 ea3c
000003d0: 6f1d 643d 23e2 56be 35bc 61bc 5f3e 023e
000003e0: da5e 213e c94a ed3c e640 c23c db3d cfbd
000003f0: 8e7d 39bd bae5 27be 9445 703c 9dd7 dd3d
0.10699035 0.09035877 -0.051181003 -0.024708003 0.034388553 -0.14832069 -0.07359606 -0.12697816
-0.07133636 -0.0074471543 0.110819414 0.12706724 0.13643162 -0.094032735 0.12386622 0.025664132
-0.11482857 -0.12409325 0.03154509 -0.0046215756 -0.029460445 -0.055868343 -0.10167232 0.06456591
-0.010093533 0.06074401 0.018623807 0.25129443 -0.010477632 -0.011619089 0.062149037 -0.074103035
-0.031843312 0.024307735 -0.12231961 -0.25925264 -0.013023683 0.0007688606 -0.13302508 0.0631272
-0.022697965 -0.12264052 -0.015854659 -0.031348437 0.034340296 0.025029905 0.072721 -0.030195877
-0.053761642 -0.15446773 0.061149623 -0.10885338 -0.03310111 0.010322997 0.025770232 -0.13454902
-0.042270023 -0.08419814 0.070964195 0.04757869 0.056690294 0.038695324 -0.072673246 2.7021391e-05
0.0006269041 -0.0019354596 -0.20081575 -0.05621912 -0.11173437 0.114715986 0.1604528 -0.0363738
0.040701736 -0.01833034 0.054360334 -0.12182537 -0.041669108 -0.09919805 -0.035673894 0.03185794
0.032633215 0.041590467 -0.022259882 -0.15214881 0.055586632 0.023660874 -0.012552708 -0.04821638
-0.05170373 0.058901574 0.072111756 -0.06448653 0.000591106 -0.015677452 -0.08260511 0.03756491
-0.10536017 -0.112301685 0.0413177 -0.08307219 0.0271195 -0.016387844 0.077738345 0.11246356
-0.005087722 -0.024948934 -0.017969223 -0.0080867605 0.018443307 -0.057481274 0.067951284 0.020354994
-0.010678678 -0.07212571 -0.026116086 0.019774877 -0.090551466 0.01994648 0.063644744 0.03226338
0.05337531 0.016915562 0.0054064617 0.20527998 -0.024433404 -0.018215487 0.06384543 -0.019044008
-0.15248111 0.05713349 0.102177136 -0.10159341 0.101207994 0.21930528 -0.06405266 0.10830251
0.16587088 -0.14338627 -0.059323587 -0.02203619 -0.092173174 -0.058193266 0.00058039645 -0.11965997
0.1344797 -0.09018513 0.051142734 0.15231425 0.1305611 0.017461464 0.20725293 0.028829837
0.0633517 0.06898671 -0.003856519 -0.075294234 0.0006143057 0.09907505 -0.062716216 0.13803513
-0.0048017437 -0.27981943 0.14251938 0.13339885 0.050756123 -0.065786466 0.18262796 -0.18027331
0.009954705 -0.085508145 0.002061102 -0.09033452 0.008695415 -0.18286361 -0.05971747 0.16064362
-0.19395187 -0.030200485 -0.0818317 0.11587994 -0.07032339 0.021897579 -0.19221614 0.1893859
0.09240707 0.15213996 -0.010516379 -0.04538562 0.0075398176 -0.13374576 0.14745235 0.006495932
0.057402425 -0.21763101 0.0702994 -0.1866458 -0.0020184088 -0.07709987 -0.018639537 0.06883112
0.15269272 0.03270347 -0.19009899 -0.07389082 0.1947742 0.16676594 -0.00899966 0.028186534
0.105467305 0.12016558 0.09372815 0.11655997 0.132615 0.034962747 0.1114044 0.07435693
0.021174012 -0.3178052 0.13275577 0.052052382 -0.0920899 0.16939129 0.0140055595 -0.15462404
0.10913378 -0.03796364 0.081301965 0.17059939 -0.061854698 0.0019077401 -0.061283708 -0.14825982
0.093785636 -0.109172374 -0.10567086 0.021650359 -0.08312193 0.09769749 -0.17728457 0.11649428
-0.07406582 0.09741201 -0.19320765 0.028641414 0.055692133 -0.20984702 -0.013777782 0.12719105
0.15758839 0.028966324 0.023712587 -0.1011922 -0.045285754 -0.16396227 0.014665026 0.108321406

action_model._discrete_distribution.branches.1.bias f4 [3]
00000000: ffc3 133e 8e86 41bd 6c30 c5bd
0.14430235 -0.047247462 -0.09628376

action_model._discrete_distribution.branches.1.weight f4 [3, 128]
00000000: fef2 a0bc ace5 26bd 434a bd3c 48c7 01be
00000010: 113b 89bd 0f02 123d 1696 ae3c 8ed7 84bc
00000020: 154e a53c 0060 19be 197b 93bd 1d46 07be
00000030: b1f3 59bd 1fa9 cf3d 47cd 8c3b 0034 8ebd
00000040: 2440 a2bd 8476 833e a7b3 05bd 485d 8e3d
00000050: 3fcf f23b dc18 38bd 2043 d53d e4b2 623d
00000060: 259d df3b c413 6bbb 1260 d3bc 0e42 31bc
00000070: 686a b1bd 5c20 543d a804 b83b c21b acbc
00000080: dbd7 6bbb c9d6 b8bc fa63 253e 1d3c 763d
00000090: 1a60 713d face 1d3e cb13 343e 508b 273d
000000a0: 31f0 24bd 8432 d6bd 7970 cebd 4304 f5bd
000000b0: 3f99 99bb c780 e0bd b422 a43c eeb6 18bd
000000c0: 280f 203e 0f12 5c3e 5abe c9bd 9d78 203e
000000d0: 49a8 b73b c841 4a3e 9bdf a33b 8d99 df3d
000000e0: dfc4 833e 01d5 8cbd d419 01be 26ba 013e
000000f0: e4c6 0fbc aba5 67bd 93b3 2bbd ea77 cebd
00000100: e32f 9fbd e706 71bd afae b6bb c737 bf3d
00000110: 60e5 0dbe 0a22 573d 8667 39bd 882e 8ebc
00000120: 85f1 0c3e e4ad fdbd 3f54 d33c 8dec 93bc
00000130: 9408 3bbd f057 7ebd 11a6 2fbe 76e3 523b
00000140: 50e3 9f3d c80c 4f3e 32c0 0b3d d1f4 1b3c
00000150: f846 293e c2bf 7fbd a284 063e bd41 283d
00000160: efc1 003d 77e0 82bd 0bd5 da3c 483e 273e
00000170: 74a2 a3bd 7fc7 d03d 9d0b 8e3d 356a 84bd
00000180: eb41 863e 9143 38bd a586 993c ba01 4cbc
00000190: a0d5 a13d 36e0 223c c716 77bd 70e6 22be
000001a0: 78ec 813e c5c3 3ebb 83d3 293e 2ee8 dd3c
000001b0: 0ba9 56bd 53ba f5bc e387 743d cdfb 7b3d
000001c0: 221e e73d e9e4 223d 69f6 cc3d b6bc fcbc
000001d0: 30c0 b8bc c86b 6fbd 8f6a 04be 5ddf a23d
000001e0: 2899 d43d 9435 b23d 338d ccbd 9cc9 89bd
000001f0: e8ed f8bd 9e6c f83d 3eda 0cbe 0122 323d
00000200: 5e49 88bc 3ab0 d63d 3471 4fbd eb16 913c
00000210: 99d3 7f3d d6ad 04bc a72b b7bd 2170 103d
00000220: 7ac6 e23a 0117 993d f5d9 c43c dc75 ff3c
00000230: 4876 733d 5c37 42bd a47b 34bd fd8e 3e3d
00000240: 214c f9bc 2e22 38be f391 af3d bc08 4fbd
00000250: 275c a1bd 1679 063d 7979 26be fcd8 80bd
00000260: c04b b3bd 0723 cbbd da23 7e3c b6fd ecbd
00000270: ee1d 3d3e aa6b 85bd 4377 a33d ecb7 c03d
00000280: 5b88 eb3d ac9a ef3c 1c54 b2bd e4bd ff3c
00000290: c92c 85bd 43a2 69bd 746b d4bd 77c2 14bc
000002a0: 1691 a93c c527 9b3d b585 d13b 7a5b 1b3c
000002b0: b897 86bd b427 453d 2118 b6bc 9890 013e
000002c0: 5049 18be 433f 44be 67a2 703c 446a d6bd
000002d0: 5640 e03c 6bad 2bbe 3dec 943d c87b 4cbd
000002e0: 4172 17be be54 943d 0110 b23d fd27 c6bd
000002f0: 9122 87bd fb2e a6bc a381 e93d a246 353c
00000300: 9980 84bd a6d9 153d d3e8 823d d024 83bc
00000310: d66c 773d 6dd8 d5bd 6e09 d53c 35ce c5bd
00000320: 21c9 f3bd 4275 433d b031 34bd 0842 e9ba
00000330: 5940 6e3d f016 263d 1104 64bd 7b11 3cbb
00000340: 6241 a7bc 9f67 63be 405f 06be 711f acbc
00000350: 3afb 0abe 2aeb ea3d 8371 aabc 6362 2abd
00000360: 7c7b 1dbd a4c2 6b3c 7263 07bb 1a49 e9bd
00000370: 7c02 aebd 5097 6fbc b72b b1bd cfa9 8e3d
00000380: 4a16 2dbe 9295 e1bd bb84 843d 7a1a ed3d
00000390: 17c8 d8bc 3ead 31be 559d 94bc c330 aa3d
000003a0: 6772 9fbe 5759 ec3d 59c6 81bd f558 7d3d
000003b0: 7829 593b 0fb3 45bd e2f0 623c f691 4fbc
000003c0: eecb a7bd 52ad fbbc 2cb3 55bd f39c 833d
000003d0: 31fc 32bd 1da0 793d 91a8 e13d ed28 81bd
000003e0: d3da 9cbd 9e88 1bbd 8b4d f83d 38a2 0cbc
000003f0: bf89 853d c9d6 1cbd 60a0 fc3d 3573 edbd
-0.019647118 -0.040746376 0.0231067 -0.12673676 -0.06700719 0.035646494 0.0213118 -0.016216066
0.020178834 -0.14978027 -0.072012134 -0.1321034 -0.053210918 0.10139679 0.004296932 -0.06943512
-0.0792239 0.25676358 -0.032642033 0.06951386 0.0074099596 -0.044945583 0.10413194 0.055346385
0.006824153 -0.0035869936 -0.025802646 -0.010818971 -0.086628735 0.051788673 0.0056157894 -0.02100933
-0.0035986814 -0.022563355 0.1615142 0.060115922 0.05892954 0.15410987 0.17585675 0.040904343
-0.040268127 -0.10458854 -0.10080046 -0.119637035 -0.004687458 -0.10962062 0.020036079 -0.03728383
0.15630782 0.21491264 -0.0985076 0.1567101 0.005604778 0.19751656 0.005001021 0.10917959
0.25736138 -0.06876565 -0.12607509 0.12668666 -0.008775447 -0.056554478 -0.041919302 -0.100814655
-0.077728055 -0.058844473 -0.005575023 0.093368106 -0.13857031 0.052522697 -0.045264743 -0.017356172
0.13764007 -0.12386683 0.025797008 -0.018057132 -0.045662478 -0.062095582 -0.17153193 0.0032179034
0.07807028 0.2021972 0.03411884 0.009518818 0.16530979 -0.062438734 0.13136533 0.041078318
0.03143495 -0.063904695 0.026712915 0.16332352 -0.0798997 0.10194301 0.06935809 -0.0646557
0.26222166 -0.04498631 0.018740961 -0.0124515835 0.07902074 0.009941151 -0.060324457 -0.15908217
0.25375724 -0.0029108387 0.16584592 0.027088251 -0.052407306 -0.029996073 0.059699904 0.061519433
0.11285044 0.039769087 0.100079365 -0.030851703 -0.02255258 -0.058452398 -0.12931274 0.079527594
0.10380775 0.087016255 -0.09987869 -0.06727907 -0.12154752 0.12130092 -0.13755128 0.04348946
-0.016636547 0.10482831 -0.05064507 0.017711123 0.062457655 -0.008098086 -0.08943873 0.035263184
0.0017301582 0.07475091 0.024029711 0.03118413 0.059438974 -0.047416076 -0.044063225 0.046523083
-0.030431809 -0.17981789 0.085727595 -0.05054544 -0.07878905 0.03283032 -0.16257276 -0.062913865
-0.087546825 -0.0991879 0.015511477 -0.11571829 0.18468449 -0.06514676 0.07981732 0.0941008
0.11500617 0.029248558 -0.08707449 0.031218477 -0.06502683 -0.05703951 -0.103720576 -0.009079567
0.020699065 0.07575945 0.006394113 0.009482259 -0.06571907 0.048133567 -0.022228302 0.12652814
-0.14871716 -0.19164757 0.014687157 -0.10469487 0.027374428 -0.16765372 0.072716214 -0.049922734
-0.14789678 0.07242726 0.08694459 -0.09675596 -0.0659839 -0.020286074 0.11401679 0.011064203
-0.064698406 0.03658452 0.06392064 -0.016008765 0.06040653 -0.104416706 0.026005473 -0.096584715
-0.11903597 0.047719248 -0.0439927 -0.0017796168 0.058166835 0.04054922 -0.05566794 -0.0028696943
-0.02041692 -0.22207497 -0.13122272 -0.021011086 -0.13572398 0.11470635 -0.02080608 -0.041597735
-0.038447842 0.014389668 -0.002065864 -0.11390896 -0.084965676 -0.014623478 -0.08650916 0.06965982
-0.16903034 -0.110148564 0.06470629 0.11577316 -0.026462598 -0.17351243 -0.018141428 0.08310082
-0.3114197 0.11540478 -0.0633666 0.061852414 0.003313629 -0.048266467 0.013851376 -0.012669077
-0.081931934 -0.030722294 -0.052172825 0.0642642 -0.04369754 0.06094371 0.110184796 -0.06306634
-0.07658925 -0.037972085 0.12124165 -0.008583598 0.065204136 -0.038290773 0.123352766 -0.115942396

action_model._discrete_distribution.branches.2.bias f4 [3]
00000000: 9404 6abd 3b47 5fbc 2e73 8c3d
-0.057133272 -0.0136278225 0.06857906

action_model._discrete_distribution.branches.2.weight f4 [3, 128]
00000000: 9aff 6a3c 64de 70bd 377a 833d 69d9 203d
00000010: f468 8cbd 233c d83d 8c02 803d 5fff e7bc
00000020: 02a4 373e 109c fe3d b6c7 da39 6069 363c
00000030: 3102 17bd bcd3 00bd 1107 273d f9be a23c
00000040: e33c c73d f8ba 833d 4e5d 0dbd c385 86bc
00000050: efd2 cf3c c58a 9abc a0be 8e3d d1d8 8e3d
00000060: 40fa 0b3d d592 c93d edc7 f13d 9a79 27bc
00000070: 9b66 8e3c 6061 803d 4b0e 9a3d cc78 03bd
00000080: fca8 653b fc6f 8ebb 0a0a 843d ab4b d03c
00000090: 02ef 093e f885 36bc 4010 123e b8fd a5bc
000000a0: 0450 b13d ec90 cb3d 3b7c 973d 7862 063d
000000b0: 8a24 5c3d 122d c73d da07 203e 78ed 13bb
000000c0: 238a 10bd 34e3 e53c b376 373e d926 e13d
000000d0: f4dc 5e3d a12c f73d 2e20 44bd 5e87 1c3d
000000e0: 610d b33d 12e4 c03c da51 53bd a6c2 3f3c
000000f0: a984 333d 8117 da3c fe59 a5ba e389 603d
00000100: 6eaa 9abc 59d9 5dbc 7d56 adbc 5c16 573c
00000110: 7350 9b3d f47a 7f3d 707c 8c3d ff75 9b3d
00000120: 4766 8bbc bfcb 3738 64ae ccbb 7aa2 543e
00000130: 4107 433d 417f f43c b6c8 6a3d 829e a0bd
00000140: 30b0 f4bc 057b e4bc 46ac e33d 3ee0 063d
00000150: 785d 2ebc 2e3e 4bbd 9532 9ebd 776d af3d
00000160: 50ea 2d3d 05de 973c f17a 3b3d ca15 053e
00000170: 316b 083d 4c20 9cbc c485 33bb 07bf 26bd
00000180: 6fd9 993d 497b af3d e2d8 e3bd c25b 56bd
00000190: 3c59 913c 7b39 533d 57bf cb3c e545 4cbc
000001a0: c8e8 7c3d c730 bf3d 2f3c 863b 0258 223e
000001b0: e1d7 35bd 7d9b 94bd bfef febc 381d 40bd
000001c0: 8b31 2abc 5347 d6bc 77d6 c0bc 7e53 3c3c
000001d0: b656 783d 359a ed3c 32b5 c9bd 3a66 ae3c
000001e0: 5f7f 84bc ba4d 9c3d 7f6f bb3c 747a 253c
000001f0: b3a7 773c 9266 493c a869 963d 326f 8b3c
00000200: d5a3 28bb c491 8dbd adec 033e 6c99 453d
00000210: d97c 47bd 7ad1 80bd 1cc5 9b3c ad9d 923c
00000220: af71 0dbe 4f1d 49bd 1059 86bc 42a3 6b3e
00000230: fd34 203d 2aaf 9f3d 79ff f33c 8612 46bd
00000240: e52b 993d 9a69 96bd 824a 26be 0c3b 1abc
00000250: fa6f 5b3d 6c78 9f3e f0fa 363d fc9a 2a3e
00000260: 265a 163e ce15 a93d 5106 59bd b7f4 4ebd
00000270: ee81 bf3d 4763 88bc cdbb 883c 1ebb eb3d
00000280: ccf3 f2bd 4d44 42be ac25 bfbc cf09 da3c
00000290: e7dc 8d3d 78da e1bd ca70 273d d3d3 27be
000002a0: db40 c1bd 0a17 13be 16ad 183e c6de af3c
000002b0: a894 a83d 678b b4bb 3b69 b83d 0e2e 083d
000002c0: 3823 053e bb3a b7bd 6db5 a3bd d691 803c
000002d0: 6faa 4b3d 3199 c83d f290 a93d a739 f43c
000002e0: 4d03 973c 0897 993d 6d17 ac3e 72b5 02be
000002f0: 6910 3a3e f8ea 6ebd 4202 eebb 26cf 3dbd
00000300: f38d 043d fb15 f63d 4025 473e 1d29 703c
00000310: caf3 48bb d214 583e df5c 1bbe c79f 4bbe
00000320: b1f1 573d 0f3e 853c dafc ebbd 2fc3 d7bc
00000330: cd48 32bd 1cbe 3c3d 8bce e63d f3af 343e
00000340: fb3e e23d 5d0c c6bd 8d93 16be 25c9 673d
00000350: 5866 8cbc e5ee 973e a9da 663d 7283 e23d
00000360: 74cb d9bc 766b 26be 9e8f bfbd 9c53 273d
00000370: 27bf 8cbe 872e 913c 7da2 89bd 953f ae3d
00000380: 793a 84bd a83d 49be 2736 6b3e 1ba3 063e
00000390: aac5 44be 475b 7b3d f218 3cbe 5d4d 0fbe
000003a0: 6ef4 9abd be64 afbd 81ef 50be 71a3 163d
000003b0: 6231 4e3e 0d65 483e dd5e f7bd 663a 0cbe
000003c0: ecb0 56bd 2f66 d4bd a2dd 06bd bcc6 153e
000003d0: ba3d 873e 8246 48bd 8da4 a53e e475 f3bd
000003e0: 74ad bdbc 9fc9 5abe c3cb 483c 4e57 c2bd
000003f0: 6a28 c63d cfc5 96bd db83 6fbd 66c9 d3bd
0.014343167 -0.05880584 0.06419795 0.03926984 -0.06855956 0.10558345 0.06250486 -0.028320013
0.17933658 0.1243211 0.00041728996 0.011133522 -0.036867324 -0.031451926 0.040778223 0.019866453
0.0972841 0.06432146 -0.03451281 -0.016421204 0.025369136 -0.018864999 0.069699526 0.06974948
0.034174204 0.09842459 0.11805711 -0.010221863 0.01738291 0.06268573 0.075222574 -0.032097623
0.003504335 -0.0043468457 0.06447227 0.025426706 0.1347008 -0.011140339 0.14264011 -0.020262584
0.0865784 0.09939751 0.07396742 0.03280875 0.053745784 0.09725393 0.15627995 -0.0022571962
-0.035287987 0.02806244 0.17916374 0.10993738 0.054409936 0.12069059 -0.04788225 0.038215034
0.08742786 0.023546252 -0.05159173 0.011704123 0.043827686 0.026622536 -0.0012615321 0.054819
-0.018880095 -0.013540589 -0.021159405 0.0131278895 0.07583704 0.062373117 0.06859672 0.07590865
-0.017016543 4.3820353e-05 -0.006246375 0.20765105 0.04761434 0.029845836 0.05732032 -0.07842733
-0.029869169 -0.027890692 0.11116843 0.032928698 -0.010642402 -0.049619846 -0.077244915 0.08565801
0.042459786 0.018538484 0.045771543 0.12996593 0.03330535 -0.01905837 -0.0027392963 -0.04070952
0.07512175 0.08568437 -0.111253515 -0.0523336 0.017742746 0.05156849 0.024871511 -0.012467836
0.061745435 0.093354754 0.00409653 0.15853885 -0.04439533 -0.072562195 -0.03112018 -0.046902865
-0.0103877885 -0.026157057 -0.023539765 0.011494515 0.06062957 0.029004196 -0.098490134 0.02128898
-0.016174017 0.07632013 0.022880314 0.010099996 0.015115666 0.012292521 0.07344371 0.017020795
-0.0025732417 -0.06912568 0.12883253 0.048242018 -0.04870305 -0.062899545 0.019014888 0.017897451
-0.13812898 -0.049100216 -0.01639989 0.23011497 0.039113034 0.07797082 0.029784905 -0.04835751
0.07479075 -0.07344361 -0.1623936 -0.009413492 0.053573586 0.31146562 0.044672906 0.16660684
0.14682826 0.08256112 -0.05298454 -0.050526347 0.09350954 -0.016648902 0.016691113 0.11510299
-0.11862907 -0.18971367 -0.023333393 0.026616005 0.069268994 -0.11027998 0.04087905 -0.16389398
-0.09436198 -0.14364257 0.14909777 0.021468531 0.08231479 -0.005509782 0.09004446 0.033247046
0.13001716 -0.08946749 -0.079935886 0.01569454 0.049723085 0.09794844 0.08279599 0.029812647
0.018434191 0.0749951 0.33611622 -0.12764528 0.18170322 -0.058329552 -0.0072634527 -0.04634013
0.032361936 0.12015911 0.19447803 0.01465824 -0.0030662888 0.21101692 -0.15172146 -0.19885169
0.05272073 0.016264943 -0.11522837 -0.026338188 -0.04352646 0.04607974 0.11269864 0.17645244
0.11047169 -0.09670327 -0.14704724 0.05658831 -0.017138645 0.2967445 0.056360874 0.110602275
-0.026586272 -0.1625193 -0.09353565 0.04085122 -0.27489588 0.017722381 -0.06720445 0.08508221
-0.06456465 -0.19652426 0.22969876 0.13148157 -0.19216028 0.061366346 -0.18368891 -0.13994355
-0.075661525 -0.08564137 -0.20403863 0.036776964 0.20136026 0.19569798 -0.120786406 -0.13694152
-0.05241482 -0.103710525 -0.03292621 0.14626592 0.2641428 -0.048895366 0.32352105 -0.1188772
-0.023153998 -0.21365975 0.012255612 -0.09489308 0.09675677 -0.07361948 -0.058475357 -0.10341148

discrete_action_output_shape f4 [1, 3]
00000000: 0000 4040 0000 4040 0000 4040
3.0 3.0 3.0

network_body._body_endoder.seq_layers.0.bias f4 [128]
00000000: b0d3 693d 60ce 063e e26c a23d e692 86bd
00000010: 764c ea3c f858 a8bc 9c16 f3bd 313f ca3c
00000020: 479b 20bc 96d1 833d 16d3 c03d 1d6d e43b
00000030: fd0a f23c 0f83 923d 6928 993d 3914 5e3c
00000040: cebd dbbc baf6 aebd d021 bc3d a1e3 af3c
00000050: c087 6e3d 44a1 303e a600 843d 510a 1dbe
00000060: 3468 a53c 03dc 0b3b 00fc bcbc 4984 093e
00000070: 70ab 093d bca6 783e 6467 0abe 851d 553d
00000080: 39a4 a4bc 6ea8 283e 7495 b6bc 9bf0 1cbd
00000090: 8948 7e3d f2b0 63bd f7f7 37bd 4a92 0d3d
000000a0: e16d 073d 4299 13bc 1528 7a3e 9158 c13d
000000b0: 2929 82bd 83bd 94bc 0784 ac3d 0744 6abd
000000c0: 69d8 59be 9a08 9abd 41fa 7f3a 6971 20bd
000000d0: 46fa de3d ba14 db3d 685f 103d 52c2 5c3d
000000e0: edac 633c 0457 213d a541 b2bd f66c ea3d
000000f0: f969 93bc a4e0 5cbd c41b 0ebe abb4 8bbd
00000100: dca2 67bd 7581 483e 5c02 f3bb 0e87 fe3d
00000110: c44a 053d b75c ca3d f958 adbd 2e16 203d
00000120: 95bc 093e eee3 c73c d131 2c3d 8748 a0bd
00000130: d1ac 08be b313 22be c443 fc3c 9364 96bd
00000140: 530a ca3d 4f16 873d 359c 30bd 5333 713d
00000150: 9e3a 91bd 39a0 8abd 72ff fb3d 062f a2bc
00000160: c352 07be 7bf7 0a3e 603a 21bd a4cc adbd
00000170: aadc 2c3e 7214 63bd ecba fcbd bf8a 13bd
00000180: 066a 233e f6ed 473d 7f8b f43d b8c9 7a3d
00000190: 986e a7bd e25d b23d 63c4 6bbd 6bdb 9c3c
000001a0: d7c1 0f3e fc83 b8bd 771f 143e 53a0 103e
000001b0: 493f 7dbd ed4f 043e 837f 243e f080 1b3a
000001c0: 1f59 a13d c16b a2bd d8f7 023d 7dfd abbd
000001d0: b070 0bbd b710 953d 7f9e f1bd 896e 03bd
000001e0: 8930 d03d 226b afbd 810d c23d 5f17 20bc
000001f0: 52dc 9a3d a9e4 bd3d a45c 5c3d 35c8 ddbc
0.057086647 0.13164663 0.07930924 -0.065709874 0.028600913 -0.020550236 -0.11869547 0.024688335
-0.009802646 0.0643646 0.094152614 0.006971015 0.029546255 0.07153904 0.07478411 0.013554626
-0.026823904 -0.08543153 0.09186137 0.021470847 0.05823493 0.17249018 0.06445436 -0.15335967
0.02019129 0.0021340854 -0.023069382 0.13429369 0.03361076 0.24282354 -0.13516003 0.052030105
-0.020097839 0.16470501 -0.022288062 -0.038315397 0.062080894 -0.05558867 -0.044914212 0.03456334
0.033063773 -0.0090087075 0.24429353 0.09440721 -0.06355507 -0.018156772 0.0842362 -0.057193782
-0.2127396 -0.07521172 0.0009764769 -0.039170656 0.108875796 0.10697313 0.035247236 0.053896256
0.013896209 0.039389625 -0.08703927 0.11446564 -0.017994868 -0.05392517 -0.13877779 -0.06821569
-0.0565518 0.19580634 -0.0074160527 0.124281034 0.032542005 0.09880965 -0.08464236 0.039083652
0.13450845 0.024400678 0.042039696 -0.078263335 -0.13347174 -0.15827827 0.030794032 -0.07343402
0.098652504 0.06596052 -0.04311772 0.058886837 -0.070912585 -0.06768841 0.12304582 -0.019797813
-0.13215165 0.13570969 -0.03936231 -0.08486298 0.16881052 -0.05543942 -0.1234034 -0.03602099
0.15958413 0.04881092 0.11940669 0.06122753 -0.08175391 0.08709313 -0.057560336 0.019147595
0.14038788 -0.09009549 0.14465128 0.14123659 -0.06182793 0.12921114 0.16064267 0.0005931994
0.078783266 -0.07930709 0.031974643 -0.083979584 -0.034043014 0.07278579 -0.11797809 -0.032087836
0.10165507 -0.08565356 0.09475232 -0.009771197 0.07561554 0.09272129 0.053799286 -0.027073005

network_body._body_endoder.seq_layers.0.weight f4 [128, 23]
00000000: 21bf a03e 1671 623e 69e2 32be a6f2 0c3f
00000010: f268 37be b121 893d fc7b 47be 686a 043d
00000020: 70d0 d3bc eed8 9e3d 082e 79be c8a1 1abf
00000030: c93e d1be d107 4c3e 2c29 a8be 3703 8f3d
00000040: eb49 8cbb 2ee4 b73e 2d9b 02be ebae 00be
00000050: 81d1 053f 8afb 423d 0f9b c33c 3375 46be
00000060: 6b62 6d3d a4dd 583e 20c4 043e 7001 c2bd
00000070: 934e 803b 9c9e c43e 9652 4bbd 0b4d 923e
00000080: 8c77 bc3e 56f3 52be e4ff 8c3e b713 36be
00000090: 1271 bc3e 2da6 9fbc dcbe 503e 2639 c43a
000000a0: 6c00 aabd d103 b73e 10aa 743e 96b9 673e
000000b0: 7753 5dbe c181 8f3e 5332 14be fe6f f23d
000000c0: 9ac7 31be 88c5 1dbf f605 943d 4f1c 993e
000000d0: 816b bebe 04ce cfbd 32f2 a13d 30c1 c1bd
000000e0: 1e3f 89be d590 7dbe a5f5 393f ccca efbd
000000f0: 6a41 8c3e d0c3 63be 026e 52bd e3f1 bb3e
00000100: 17a3 723d d431 103e b914 c63d 4cad 6a3e
00000110: 10ae 49be cd19 833e 4455 603e 6cd8 39be
00000120: 192c 91bd ee3e 133e 64c0 92be eae0 7ebe
00000130: f91a a03d 54cb 7b3e 50b4 06bf abc3 bebe
00000140: 8d78 bc3e 9ac5 a8bd 9777 c0bd bec4 453d
00000150: 1b13 a6be 734d c43d 16c3 9cbe 63de d7be
00000160: df14 3dbd 4b64 a0be 2b55 453d 8532 36be
00000170: f2d7 583d ec58 b23e 23d3 dfbd 77f4 0d3d
00000180: c5b7 8bbd 0a65 02bd 4e4d 49be abaa be3a
00000190: 009e 5b3e 0aa5 0dbe 4f54 563e ee27 ea3d
000001a0: 9c55 383d 32ca 4f3d fced 4c3e cbc6 a8bd
000001b0: 5ae6 6abd f059 a23e dc7a 7f3e 54d0 633e
000001c0: f657 fe3d bf70 94be 9102 9ebe 10fb a0be
000001d0: 3867 6c3e 1425 93be 6ab6 5b3e 1543 7abe
000001e0: e308 b43e ba7f 2c3d fd31 a6be ab76 1e3e
000001f0: 3fb4 48be b86e 903e feee 3f3e ae8e aebe
00000200: 5dae f5bd 7b5a c53d f330 073e 5793 973d
00000210: 2179 4ebe ce0a 363c e12f 263e 6d8f 0cbf
00000220: 18e5 bcbe 67ca 6b3e 579f 0fbe 3fbd 92be
00000230: 72f8 a8be 1d6d 29b9 cdcc c6bd 0cd6 6a3e
00000240: d8ac 98be 63ae 84be 0053 023f 2462 da3d
00000250: dfac ee3e f59c 2bbe 47a0 c83e d7f9 0ebe
00000260: a0cd 09bb 7101 3abd 46d2 dabe 370e 2dbe
00000270: b9b3 9b3c c676 383d 746c e9be f579 0a3e
00000280: 418e 4b3c ca74 93be 55b5 b63e 569e 443e
00000290: 7deb fe3e b681 e6bd fcda fdbd 119e 88be
000002a0: a497 dcbd 5445 ae3b 143c bf3e 0904 003d
000002b0: 7127 5cbe 5470 9fbe 8ebb bfbd 838b 8b3e
000002c0: bfec bd3d 4704 943e 588a ca3e 5cba f93e
000002d0: 7111 e8bd 3285 7fbe 8c22 c53e 4993 403e
000002e0: da58 8f3e 1f05 3e3d b753 d5bd fea7 d83e
000002f0: 9357 853c 81ba 8a3d 9a5b eebd 7ed3 a13c
00000300: 9cc2 8f3e 45e9 243e 27eb 283e f238 fe3d
00000310: 2a2e d2bd 4af4 d4be e0df bf3e ca75 aa3d
00000320: 219c 96be 82a5 a03e 0304 6f3e 566c 9cbe
00000330: 8a59 543e 4525 03bf f7f5 a5bd 2a0a 41be
00000340: e29d b63c 9284 53be 66dc 05bd d108 bf3d
00000350: 74e1 a6be ebb1 21bd 491f 91be 33bd 8f3d
00000360: 72bc b0be 6d5c 65be cb8c 15be 38a6 0fbf
00000370: 2b72 3d3e 5adc d63e b30f 953d 7dc7 57bd
00000380: b607 10be 432e 9d3e e9b4 883d 53f6 6c3e
00000390: 28ee 2c3f aa9d 803b e94b 03be 7bcb 38be
000003a0: 018e f73e dd26 2cbd a1bd 1f3e 422b e1bd
000003b0: 6a70 c4be ce6f c53d 2102 953e 8dfb 623e
000003c0: e7d0 acbe 924e 92bd 688b 763e 8ff6 7fbe
000003d0: b7be 8b3e 96f0 2b3c 5134 7f3c d072 443e
000003e0: 99e0 013f aa98 843e b801 80bd da3a 673d
000003f0: 83f1 c6bb 4403 ee3d b3f3 33be 28d1 d0be
0.3139582 0.22113451 -0.17469181 0.5505775 -0.17911127 0.06695879 -0.1948089 0.03232804
-0.025856227 0.0775622 -0.24333966 -0.6040311 -0.40868214 0.19924857 -0.32843912 0.06983035
-0.0042812726 0.35916275 -0.12754507 -0.12566726 0.522728 0.047603168 0.023877649 -0.19380645
0.057955187 0.21178299 0.12965441 -0.094729304 0.003915617 0.3840226 -0.049639307 0.28574404
0.36809957 -0.20600638 0.2753898 -0.17780958 0.36805016 -0.019488418 0.20385307 0.0014970645
-0.08300862 0.357451 0.23892999 0.22629389 -0.2161387 0.28028682 -0.14472322 0.11837767
-0.17361298 -0.61629534 0.072276995 0.2990441 -0.37191394 -0.10146716 0.07907523 -0.09460676
-0.26805967 -0.2476228 0.7264045 -0.11708602 0.27393657 -0.22242665 -0.051374443 0.36707982
0.059237566 0.14081508 0.09671921 0.2291767 -0.19695306 0.25605622 0.21907526 -0.18148965
-0.07088489 0.14379475 -0.28662407 -0.24890485 0.078176446 0.24589282 -0.52618885 -0.37258658
0.36810723 -0.082408145 -0.0939781 0.04828333 -0.3243645 0.09585085 -0.3061759 -0.42161855
-0.046162482 -0.31326517 0.048176926 -0.17792709 0.052940316 0.34833467 -0.10928943 0.034656968
-0.06822161 -0.03183464 -0.19658396 0.0014546713 0.21446991 -0.13832489 0.20930599 0.11433397
0.04500352 0.050729938 0.20012659 -0.08241042 -0.057348587 0.31709242 0.24949211 0.2224744
0.12419121 -0.28992268 -0.30861333 -0.31441545 0.2308625 -0.28739226 0.21456304 -0.24439652
0.3516303 0.042113997 -0.32460013 0.15474956 -0.19600008 0.28209472 0.18743512 -0.3409323
-0.11996148 0.096363984 0.13202266 0.0740115 -0.20163395 0.0111109745 0.16229202 -0.5490635
-0.36893535 0.23026429 -0.14025627 -0.28660008 -0.3300205 -0.00016157744 -0.097070314 0.22933215
-0.2981937 -0.25914297 0.509079 0.1066325 0.46616265 -0.16759093 0.39184782 -0.13962494
-0.0021027103 -0.04541153 -0.4273855 -0.16899954 0.019006597 0.045035146 -0.45590556 0.13523085
0.012424053 -0.2880004 0.3568522 0.19201025 0.49789038 -0.11255209 -0.123952836 -0.26683095
-0.10771111 0.005318323 0.37350523 0.03125385 -0.2149942 -0.31140387 -0.09361945 0.27254876
0.09273671 0.28909513 0.39558673 0.48774993 -0.11331452 -0.24953154 0.3850292 0.18806185
0.27997476 0.046391603 -0.10416358 0.42315668 0.01627711 0.06773854 -0.11638565 0.019754168
0.28078163 0.1610461 0.16495954 0.12413205 -0.10262711 -0.41592628 0.3747549 0.08323248
-0.29415992 0.31376272 0.23341374 -0.30551404 0.20737281 -0.51228744 -0.08103555 -0.18851534
0.022292081 -0.2065604 -0.03268089 0.093278535 -0.32593882 -0.039476316 -0.2834418 0.07018509
-0.34518772 -0.22398539 -0.1460449 -0.56113005 0.18500583 0.4196499 0.07278385 -0.05268048
-0.14065441 0.30699357 0.06675131 0.2314084 0.675509 0.003925045 -0.12821926 -0.18046372
0.48350528 -0.04202925 0.15599681 -0.10994579 -0.38367015 0.09640466 0.29103187 0.22166272
-0.3375313 -0.07143892 0.24076617 -0.24996398 0.2729394 0.010494372 0.015576438 0.19184422
0.50733334 0.25897723 -0.06250328 0.05645261 -0.006071271 0.116217166 -0.17573433 -0.40784574

network_body._body_endoder.seq_layers.2.bias f4 [128]
00000000: e971 cfbd 0e7e a23c 6572 a33c 403c 34be
00000010: e53b 00be 6363 223e 7405 5bbe 4e99 acbd
00000020: 0de5 b13d b23f 52be 7ec2 0dbe decb c6bd
00000030: 5e60 49be f1b9 763d c985 6fbd f56d 8fbe
00000040: 7109 8e3d 0979 f53d 7ff8 083d 3435 3c3e
00000050: 61c5 013e d3a5 94bc e7ce ec3d ca0b be3d
00000060: 73ec 893c bc21 2c3d 71f9 71bd e520 aabd
00000070: a688 3cbe 82ad fa3d ec92 03be 7031 14bd
00000080: f7b4 43bd 9435 8bbd f934 0e3e 565d 16bd
00000090: a377 e43c 2cdd 423d 2492 3a3d af9e 5cbd
000000a0: 967b 91bd 14e5 a4bd bee4 abbc 5d43 6fbe
000000b0: 96e1 743c beb0 9cbe 2ae6 b5bd e530 64bd
000000c0: e73f bc3c dfe6 7b3d 92f5 4ebe f2ee 813d
000000d0: e615 8cbe e0fd 543d 080b ebbd c3c9 d43d
000000e0: 2132 4d3d 6eaa 733d 0c39 a0bd 35f5 f63c
000000f0: 7f85 083d 5a9d 85be 2e82 bcbd 5a41 f6bd
00000100: 7f52 543d 9edf 17be f146 1e3d 1302 56bd
00000110: 8866 3abd 35b5 cebd 21a7 c1bd 9a2c 2a3d
00000120: c46b 7b3e 5da7 1abe 0426 ddb9 9ddf a6bd
00000130: b6a0 5f3b 1c25 893d a6e4 82bb 2446 fdbb
00000140: 4585 273e f253 713e e034 0d3d 3c24 903d
00000150: c110 893e 7a14 ed3c 5343 073d 0a17 563b
00000160: 572d d23d d76c 05be 9043 75ba 54c2 11bd
00000170: 4727 3c3d 2428 603e 6bb9 f13d cfb9 90be
00000180: d86f d93d 1166 4d3d a828 06bb 6c06 963c
00000190: 2406 1d3e f60c 9a3d c121 80bd 02f2 2fbe
000001a0: 0b4b 133e 22f4 41be 5432 ff3d 5fac 00bc
000001b0: ffb9 e6bd 87d5 1abd 6648 07bd a82f 9b3d
000001c0: 10fb a8bc 7851 26bb 6f76 afbd b800 a9bd
000001d0: 0c08 103d 9173 68be c237 8ebd 0a0a 0e3e
000001e0: 6ab4 903e 4281 033e 76ff 16be 881c f5bd
000001f0: ef86 46be ebc6 80bd b278 b8bb b8e8 103d
-0.101291485 0.019835498 0.019952009 -0.17601109 -0.12522848 0.15858226 -0.21388799 -0.08427678
0.08686266 -0.2053211 -0.13843724 -0.09706853 -0.19665667 0.06023592 -0.058477197 -0.28013578
0.069353946 0.11985976 0.03344011 0.1837967 0.1267295 -0.018145477 0.11562901 0.09279592
0.01683638 0.04202436 -0.059075776 -0.083070554 -0.18411502 0.12240125 -0.12849015 -0.03617996
-0.047780003 -0.067973286 0.13887395 -0.036710106 0.027889078 0.047574207 0.045549527 -0.05386227
-0.0710365 -0.08051506 -0.020983096 -0.23365541 0.014946362 -0.30603594 -0.08881791 -0.055710692
0.02297969 0.061499473 -0.20210865 0.06344403 -0.27360457 0.051999927 -0.114767134 0.103900455
0.050096635 0.059488706 -0.07823381 0.03014622 0.033330437 -0.26096612 -0.09204517 -0.120241836
0.051836487 -0.14831397 0.038641874 -0.052248072 -0.045507938 -0.10093156 -0.094557054 0.04154644
0.24552828 -0.15102907 -0.0004218073 -0.081481196 0.003412289 0.06696531 -0.003994542 -0.0077293087
0.16359432 0.23567179 0.034474254 0.07038161 0.26770595 0.028940428 0.03302319 0.003266754
0.10262554 -0.130298 -0.0009356076 -0.035585716 0.045935895 0.21890312 0.11802944 -0.2826676
0.106170356 0.050146166 -0.002047101 0.018313609 0.15334374 0.07522003 -0.06256438 -0.17182162
0.14384095 -0.18940786 0.12460771 -0.0078535965 -0.11265945 -0.03780129 -0.03302803 0.07577449
-0.020627528 -0.002537815 -0.08567511 -0.0825209 0.035163924 -0.22700335 -0.06944229 0.13871017
0.28262645 0.12842277 -0.14745888 -0.119683325 -0.1938741 -0.062879406 -0.0056296224 0.035378188

network_body._body_endoder.seq_layers.2.weight f4 [128, 128]
00000000: 9a75 1d3b c2a8 853d d6a1 a53d 6ed3 9ebe
00000010: 93c8 a53d a369 c2bd ff31 b73d 5ea6 f43b
00000020: 6dc9 77bc 3067 cbbc eb99 c0bd d92c d1bd
00000030: 5758 b43d a93c a0bd ff4f 983d 5d0e 7c3e
00000040: acec aa3d 41ad 09be 15d7 5f3d 5bfd 28be
00000050: 40f4 88be 6c2c 41bd ffdb ac3d 4391 9ebd
00000060: 292f f9bd 2bf9 2b3e 5d46 04be 9c51 3bbd
00000070: b456 11bd 7146 13be 308c 4c3e a8fd cdbc
00000080: 3f7f b7bd 0f20 8c3d a595 99ba b73a 36bd
00000090: 33d5 2fbd bf10 263d 0573 843d fab3 d03d
000000a0: 11d8 d5bd 575a a3bd 277b df3b 66da 07bc
000000b0: ae38 d0bd 4e2f 33be 06b2 363c 7846 b0bd
000000c0: a727 d83c 1278 adbd e533 65be 05ce 37be
000000d0: 8dbf b13d 1ba7 66bd e2c1 993c 83c4 7bbd
000000e0: 3e86 65be fc33 f03d df4a f7bd 0a94 69bc
000000f0: 65ae 2c3e 7cfe 61bc e802 6cbe 0a27 033e
00000100: 192a 1c3c bc05 0d3e 5acc 253e 4eee 00bc
00000110: 0397 a9be 43eb 0f3e 8c2b 93bd ab1e 3dbe
00000120: c3c6 fabd b514 dcbc c754 e8bd d013 3bbd
00000130: d41a 6e3d 664e 20be 79cb 8c3e 4a9c cebd
00000140: 1057 d0bd f858 4439 5ecf 13be ab60 ed3d
00000150: 1e10 70bd f513 3d3e 0de8 f93d b660 95bb
00000160: d022 dcbd bbcb 8c3d 2124 34bd 2a10 b8bc
00000170: a01c 34be f73f d63c 9097 933e bf60 a33d
00000180: 44af 2abd 6342 c63c 2429 d6bd 618b 23be
00000190: 4a1c 91bd f359 b6bd 7e4a d1bc 8397 bbbd
000001a0: 9e8f c1bd e862 21bd 770a 01be c5bb 05be
000001b0: 9226 4bbe a888 cb3c a3b6 893d 888c 963d
000001c0: e155 303e 677f bc3d 0ae9 1cbe 47e4 c4bc
000001d0: 3c22 13bd 0748 3fbe 690e 4ebd bc41 aabd
000001e0: f78b b1bc 2c90 dcbd 24e2 093e 135a e13c
000001f0: 28a7 2ebd 8dee b0bd ae94 043d a4f8 813d
00000200: a46d 7ebe 56ed fcbd ba70 e7be 09c4 38bc
00000210: a05e 50be e0df 193e 05a4 b8bc 2078 5d3e
00000220: 75c2 0bbe c87d a4bd 4cc9 5dbe d3ef a9be
00000230: 766e d9bd 8dca b8bd 2fd1 363e 77ea 29bd
00000240: 181c e4bd aa4e f0bd 7fbc 9a3d d8c4 423b
00000250: 5e78 e4bc 3b26 003d 9804 2fbe ad3a 013d
00000260: b318 db3c 6f77 dcbd 4009 733d de68 07bd
00000270: fd4c 383e d93b e9bd 25d0 853d 4a08 9c3c
00000280: cc1c 163e 4018 6dbd 2add 46bc 7152 773d
00000290: a2c5 e6bc 2373 0e3e b9dd 5dbc 7781 143e
000002a0: 102b 853c 9d51 0cbe 67c9 8dbd c9ed a0bc
000002b0: a9f5 67be 7752 df3a 612f 13be d788 f0bc
000002c0: 3108 3cbd d161 b23e 348d eb3d 00b3 4cbe
000002d0: 4d58 13be 38c1 aabd 9011 a6be f6cd 60be
000002e0: ba7d 0cbe 8bb6 e0bd fb53 22be 9278 5cbd
000002f0: a5a8 24be 62e9 353e d9ad 313d a840 7a3d
00000300: 2b84 063e 1bc9 95bd f7c0 c9bd ddb3 033e
00000310: 6158 eb3d 8910 efbd d714 823e ec67 54be
00000320: 3000 de3c 04f6 04be 8d68 4c3e 7d13 a0bc
00000330: e359 c33d 46c4 92bd b888 6dbe 6c47 51be
00000340: 784f 3d3d 67a7 053e 9ad7 25bd 4ac1 313c
00000350: 3d12 36be 3f79 303d e2c2 3dbd 6911 45be
00000360: 8692 c73d ffbc 23be c20d f13d e8fa 083e
00000370: 4c5e 67bd 34b9 6f3d 7ca5 a8bd 55a4 a3be
00000380: 94d4 4b3d 56f1 8bbc ae71 393d 73d0 bdbd
00000390: c53d ba3d 752a f43d 20bb f8bd efd4 40bd
000003a0: 8a0a 573e 52b6 3338 a60f 8abc 9b01 67be
000003b0: 6ef1 8dbc 40a0 3a3e 025a 053e eb9d 023d
000003c0: db0d 2ebe 19bb 84bd 30e8 39be ac44 0dbe
000003d0: 93f7 ba3d 75ff ed3d 8d90 01bd 5d74 29bb
000003e0: be69 a6be e2b6 8bbd 1b3f 08bc 4a04 cfbd
000003f0: 9c09 2e3e 5a01 b7bd 645f 903d dfdb b53c
0.0024026395 0.065263286 0.080875084 -0.31020683 0.08094897 -0.09492805 0.08945083 0.0074661216
-0.015123707 -0.024829477 -0.094043575 -0.10213632 0.08805912 -0.0782407 0.07437133 0.24614854
0.08345923 -0.13444997 0.054648478 -0.16502897 -0.26748848 -0.047161505 0.084403984 -0.0774255
-0.12167198 0.16794269 -0.12917466 -0.045732126 -0.035483077 -0.1438234 0.19975352 -0.025145367
-0.08959817 0.06842052 -0.0011717571 -0.04448959 -0.042927932 0.040543314 0.06467251 0.10190578
-0.10441602 -0.07976215 0.006820101 -0.008291816 -0.10167061 -0.17498514 0.0111508425 -0.08607191
0.026386095 -0.08470167 -0.22383077 -0.17949684 0.086791135 -0.056311708 0.018769208 -0.061466705
-0.2241449 0.11728665 -0.120748274 -0.014256487 0.16863401 -0.013793584 -0.23047984 0.12807861
0.009531521 0.13771719 0.16191235 -0.007869316 -0.33123025 0.14054589 -0.0718604 -0.1846873
-0.12244942 -0.026865343 -0.11344295 -0.04567319 0.058131054 -0.15654907 0.27498987 -0.100884035
-0.10172856 0.0001872516 -0.14434573 0.115907036 -0.05860912 0.18464644 0.12202463 -0.004558648
-0.107488275 0.06874796 -0.043979768 -0.022468645 -0.17589045 0.026153548 0.2882657 0.07977437
-0.041671053 0.024201578 -0.10457066 -0.15971138 -0.07085474 -0.08903875 -0.025548216 -0.09159758
-0.09451221 -0.039400965 -0.12601648 -0.1305991 -0.19838932 0.024845436 0.06724288 0.07351023
0.1722026 0.092039876 -0.15323272 -0.024034632 -0.03592132 -0.1867982 -0.05030671 -0.08313319
-0.021673186 -0.10769686 0.13465172 0.027508771 -0.04263988 -0.0863925 0.032368354 0.063462526
-0.24846512 -0.12349956 -0.4520319 -0.011277207 -0.20348597 0.15026808 -0.022539148 0.21627855
-0.13648398 -0.08031803 -0.2165882 -0.33190784 -0.10616772 -0.090230085 0.17853235 -0.04148337
-0.11138171 -0.11733754 0.07555484 0.0029719379 -0.027889427 0.03128646 -0.17091596 0.0315501
0.026745176 -0.10764968 0.059334993 -0.033058994 0.17998119 -0.11388368 0.06533841 0.019046921
0.14659423 -0.057884455 -0.012137691 0.060381357 -0.02817041 0.13911109 -0.013541632 0.14502512
0.016255885 -0.13703008 -0.0692318 -0.019644635 -0.22652306 0.0017038126 -0.14373542 -0.029362125
-0.04590625 0.34840253 0.11501542 -0.19990158 -0.14389153 -0.08337635 -0.32435274 -0.21953568
-0.13719836 -0.10972317 -0.15852349 -0.053825922 -0.16079958 0.1776481 0.043378685 0.061096817
0.13136356 -0.073137484 -0.09851258 0.12861581 0.11491466 -0.11673076 0.25406525 -0.20742768
0.027099699 -0.12984473 0.19961758 -0.019540543 0.09538629 -0.071663424 -0.23196685 -0.20437402
0.046218365 0.1305214 -0.040488817 0.010849306 -0.17780395 0.04308438 -0.046328433 -0.19244923
0.09744744 -0.15990065 0.11770202 0.13376963 -0.056486413 0.058526233 -0.08234689 -0.31961313
0.049763277 -0.017082851 0.04527443 -0.09268274 0.09093813 0.119221605 -0.12145066 -0.04707807
0.21000114 4.2846725e-05 -0.016853165 -0.22559206 -0.017327037 0.18225193 0.13022617 0.031888884
-0.16997473 -0.064809985 -0.18154979 -0.13795727 0.09129252 0.1162099 -0.031631995 -0.0025856711
-0.3250255 -0.068219915 -0.008315827 -0.1010824 0.16995853 -0.08935805 0.07049444 0.02219957

network_body.observation_encoder.processors.0.normalizer.running_mean f4 [23]
00000000: 7926 0f41 3fd3 93be c2dd 2541 db42 003e
00000010: 866f 723d 1369 ecbb 407d d03c 1013 c73f
00000020: 6998 393f 3160 4bbe 7be9 e43f 89e8 563e
00000030: 63a3 cc3c 1a49 803a 6d76 333d fb1f 103d
00000040: 169a 7e3f ef65 b9bc 936e 7e3f 7a3a 2a40
00000050: 29b1 a042 341f d0bf 36d4 5b3e
8.946893 -0.28872105 10.36664 0.12525503 0.05918839 -0.0072146743 0.025450349 1.5552692
0.72498184 -0.19860913 1.7883753 0.20987143 0.024980253 0.0009787411 0.04381411 0.03518675
0.99453866 -0.022631614 0.9938747 2.6598191 80.346016 -1.6259522 0.21467671
